seeding/seeds/champion/0_0.pt (torch, 8224 bytes, 6 tensors)

lstm.weight_ih_l0 f4 [64, 4]
00000000: d742 15bc 3e0a 18be 5556 15be 6454 1cbe
00000010: a8ae 60be 6267 753e 359d d0bd e22e 4c3e
00000020: e442 ac3d fbf2 21be 1a74 7ebd 33f3 d8bd
00000030: 8fa5 0e3d 612a b33e 2024 0e3e 770f d93e
00000040: 3c57 3c3d c1f7 a53e 158f 27be 0f85 1a3d
00000050: dbaf 3dbe 9d80 ecbd fed3 96bd ed1a 67bd
00000060: abe1 8dba 8d5d b03c 5a66 95be 7618 32bd
00000070: e6d8 ef3c 3141 8a3e 072b 93be 725d 713e
00000080: e686 973c 1c68 ae3e 5934 b5bd 0c57 bf3d
00000090: 4e2c 88be 85b7 8e3c 8bf9 663e edd2 97bd
000000a0: 614d 45be 352a df3d a64f fa3d 1b84 2d3e
000000b0: ce7b 03be 22a0 0fbe ee0b 0abc 4b38 50bd
000000c0: d352 403e 991d 82be aeca 04be 5ef8 c83d
000000d0: 554f a53e cfa6 7fbe 4b9e be3d 15e4 1abe
000000e0: d887 27be b917 35bc 5c31 4ebe 9654 a5bc
000000f0: d810 2bbd 70db cabd f7c1 ffbd 2766 dfbd
00000100: a191 693d 4c20 2abe c29d 48be 63f0 6cbe
00000110: 0b2e 17be f7ff 473d f971 27be 3c4e 0a3e
00000120: 871b 6a3d 68cd 39be e2d6 87be 6fe2 52be
00000130: 0778 4fbd 5000 5d3e 9392 3c3e 26e3 2a3d
00000140: 421e 87be 8549 4cbc 5d2a b33d e6ac 8b3e
00000150: 9b30 85be f942 ed3d dea1 e8bd 5c0a 833e
00000160: 6ffa 0bbe 3917 573e f421 493d 9bd1 a1bc
00000170: 70e0 1ebe 905d 18bb f023 03bd 05ba b7bc
00000180: e098 29be bc4c 86bd c153 41be 4b6c d5bd
00000190: 583f 99be d23f 00be ec97 953d 3076 853e
000001a0: 767d 41be 1c7f 3b3e dd64 9abe 68f6 da3d
000001b0: 7ce7 a2be c58b 5f3e 52ad cbbb 22f5 07be
000001c0: 8f9b a13e a680 f4bc 7573 073e 10cd 94be
000001d0: df6c a5bc fb3c 963d 7417 9cbc de62 70be
000001e0: 1275 b5bd 7404 7e3e 85f2 293e d1cd 4a3e
000001f0: 7ee0 05be e40c 13be 089c 993e 0423 983c
00000200: 03c7 d43c 5c3b 5f3e 6945 9f3d e4e4 3b3e
00000210: bb22 5abe 7d44 e43d c8c0 493e d268 0dbe
00000220: 76fb 76bd 1502 6d3e 4046 dabd baa2 ecbd
00000230: cd18 16be 1ff1 c33e 7c6e 94bd 82af 91bc
00000240: 3b68 1abe cdbc 223d 6b28 8b3e b7b0 093e
00000250: dc29 cb3d cac1 063d 2aaf 8bbe f4a6 23bc
00000260: 4208 633e aaf6 7fbd 763a 42be 5eae 55be
00000270: 2aea 893e 6da7 d6bd 243d 513d 4662 193d
00000280: 1535 c1be 986e c13e 6a6f 3f3d 526e ba3e
00000290: dd79 18be c716 743c 5fdb eb3d a771 52bd
000002a0: 63c8 3fbe 4b7e 193e b0c3 98be 66f8 edbd
000002b0: 878f e7bd 96fd 023e 51ef d73d 3bde e1bd
000002c0: 2dee 2d3d c111 74bd e7b7 063e b94d 7f3e
000002d0: fa35 913c e0ca 913e a44e 64be 3040 f43d
000002e0: f996 a3be 9edb 3a3d d6e4 2abd 6721 a53e
000002f0: ed31 263e 2a92 f6bc 97ea a13e d488 d03d
00000300: b605 2b3e f3e4 92be f6a2 35be 4364 55be
00000310: d6be 76be 0fa7 81bd 61f1 71bd 174c a43e
00000320: ea89 2b3e 09bc 0b3e 1bfd cabd a0aa 61be
00000330: 15be b7be 3355 083d e43a 0a3e 32d1 7c3e
00000340: 002c e1bd 356f c83e 10f4 9bbd 063e b63e
00000350: 056f 00be a867 9a3d 074c 5fbe 29cd c33e
00000360: a364 edbe e168 583e 41dc 0cbe a8d1 c53e
00000370: 1b45 ccbe dc82 2ebe 6c02 48be 57f9 203e
00000380: ac65 263e cdea b03e 0390 133d 35b1 213e
00000390: b1bd 85be 1765 f7bc 3b9b 943e f22a 85bd
000003a0: 8adc 80be d5da bdbd 4332 913e f19e 183e
000003b0: 87a1 92bd 0f8f 373e 1232 d9bd 791d a03e
000003c0: 90db d73d 9fd9 0ebd b5f4 3f3d f1a0 8c3d
000003d0: 3436 6c3e 94eb 1dbe 5a9f 37be 4264 8cbe
000003e0: 3c45 8cbe be85 05bd 46e4 0fbe 1c86 96bc
000003f0: 3a67 34be 928a 973d 6dd2 6c3e c03b 153e
-0.009110174 -0.14847657 -0.14583714 -0.15266567 -0.21941626 0.23965219 -0.10186235 0.1993976
0.08411196 -0.15815346 -0.06212244 -0.105932616 0.034825858 0.3499327 0.13880968 0.4239461
0.04598163 0.32415584 -0.16363175 0.03772455 -0.18524115 -0.115479685 -0.07364653 -0.056422163
-0.0010824701 0.021528983 -0.2917965 -0.04348036 0.02927823 0.27002862 -0.28743765 0.23570803
0.018496942 0.34063804 -0.08847875 0.09342775 -0.26596302 0.017421493 0.2255613 -0.07413278
-0.19267799 0.10896722 0.12222223 0.16944925 -0.12840196 -0.1402593 -0.008425696 -0.050834935
0.18781595 -0.25413206 -0.12967941 0.09812997 0.32287088 -0.24965976 0.09307536 -0.15126069
-0.16360414 -0.011053019 -0.20136017 -0.020181935 -0.04176411 -0.09905136 -0.12488168 -0.10908156
0.05702365 -0.16613883 -0.1959143 -0.23138575 -0.14763658 0.04882809 -0.16352071 0.13506407
0.05715516 -0.18144763 -0.2653113 -0.2059419 -0.050651576 0.2158215 0.18415289 0.041720532
-0.26390272 -0.0124687 0.087483145 0.2728035 -0.26013646 0.1158504 -0.11358999 0.2559384
-0.13669752 0.21004952 0.049104646 -0.019753268 -0.15515304 -0.0023249127 -0.032016695 -0.022427568
-0.16562223 -0.06557605 -0.18879606 -0.10421046 -0.2993114 -0.12524346 0.073043674 0.26066732
-0.18895516 0.18310207 -0.30155078 0.106915295 -0.31817234 0.21830662 -0.0062157298 -0.13277104
0.31563994 -0.0298465 0.13227637 -0.290627 -0.020193515 0.0733585 -0.019054152 -0.23475215
-0.0886022 0.24806386 0.1659642 0.19805075 -0.13073918 -0.14360386 0.30001855 0.018571384
0.025973802 0.21799988 0.07776911 0.18349034 -0.21302311 0.111458756 0.19702446 -0.13809517
-0.060298406 0.23145325 -0.106579304 -0.11554475 -0.14657898 0.38269898 -0.07247636 -0.017783884
-0.15078823 0.039730836 0.27179274 0.13446318 0.099200934 0.032899655 -0.27282077 -0.009988535
0.22171119 -0.062491097 -0.18967614 -0.20867297 0.26936466 -0.10481153 0.0510837 0.037447236
-0.3773581 0.3777969 0.046737112 0.36412293 -0.14890237 0.014898009 0.11516451 -0.05137792
-0.18728785 0.14989583 -0.29836798 -0.11619644 -0.113066725 0.12792048 0.10543693 -0.11028715
0.04246347 -0.059587244 0.1315609 0.24931993 0.017725933 0.28475094 -0.22295624 0.11926305
-0.3195112 0.0456196 -0.04172214 0.32252046 0.16229983 -0.030098993 0.3162429 0.10182348
0.16701397 -0.286903 -0.17737946 -0.20839028 -0.24096236 -0.06330692 -0.059068087 0.32089302
0.16751829 0.13645948 -0.09911557 -0.22037745 -0.3588721 0.033284377 0.13499027 0.24689177
-0.109947205 0.39147344 -0.076149106 0.35594195 -0.1254235 0.07539302 -0.21806346 0.38242462
-0.46365842 0.21133758 -0.13755895 0.38636518 -0.39896473 -0.17042106 -0.19532174 0.15720116
0.16249722 0.3455414 0.036026012 0.15790255 -0.26121286 -0.03019957 0.2902468 -0.06502332
-0.25168258 -0.092702545 0.2835866 0.14904381 -0.07159715 0.17925666 -0.10605253 0.31272486
0.10539925 -0.03487551 0.04686423 0.06866635 0.23067552 -0.15421897 -0.17931882 -0.2742024
-0.27396572 -0.03259825 -0.14051923 -0.018374495 -0.17617503 0.07399477 0.23127146 0.14573574

lstm.weight_hh_l0 f4 [64, 16]
00000000: ae9d 173e 6733 8fbb 6968 4f3e 7ae0 9ebe
00000010: 2a8c 363d 275f 0fbd 8a29 4b3e 4419 cb3e
00000020: 3172 643c e857 b5be 6eec b2be 1234 49be
00000030: f4da eb3d f60e ba3b 162b 96bd 8b7a 753d
00000040: 0026 48be f960 f8bc 95ee 1f3d 1962 e0bd
00000050: 7f39 b03e d22b 58bd d288 f43d f494 603d
00000060: ddcf cc3d b713 bd3e be23 343e 1546 4bbd
00000070: 788f 603d c495 9fbd 698a c13e 2615 273e
00000080: 76c1 103e 43e8 a2be d1a8 6f3d 56c7 43bd
00000090: c23c 4fbe ce37 923e b2dd 283e 91ca 693d
000000a0: 7e7c a53d 51ed 93be d4cd 89be fd25 05be
000000b0: 9725 f33d 78c1 c63c ac47 053e 13ef 183e
000000c0: 5041 60be 5330 a33e e73b f83d 94d3 b83d
000000d0: 99ec 143d ecbc 0bbd bc32 39be 2374 953d
000000e0: 2988 b4bd 1fd6 d13d b112 bf3e fbe7 b53e
000000f0: 2503 9ebd e792 3dbe ef5f bf3b 8c49 293d
00000100: bcc7 6ebe a021 8e3e 4083 a3be eeec 313e
00000110: b241 9e3e 46b0 8fbe e884 543d 7c33 82be
00000120: 865c f5bd 0c2d 643d 9458 2b3d 31ec 843e
00000130: 9a38 17be 655d d8bd 86bc 52bc 75af 68bd
00000140: d8e0 efbd 5e35 2dbe 1e85 fcbd 9de8 70bb
00000150: 69ae 8c3e 8687 28bd 7029 76be dfb8 b23d
00000160: 5c47 bf3d 0936 55bd ff9d a3ba 6edf 853e
00000170: 7f4e 15bb 82f3 21be 0a7e ccbd 6b4f ecbd
00000180: 18ed 17be 3687 a23e fac8 96be a2c0 c63e
00000190: bef1 773e b89b 2fbd e0a9 43bc e445 a6be
000001a0: 55fd d43e 03eb d93e c0c5 643e 7799 b53e
000001b0: 8b64 2cbd d2cc a2bc 0455 7cbc fcc4 7ebe
000001c0: 58c7 35be a670 903e df2c 11bd 3f8a bc3e
000001d0: caf6 6e3e 9130 10be 092b b9be ad5a 4cbe
000001e0: 4164 9b3e 7ae9 073e e97e bd3e afd6 b33e
000001f0: 7a0f a7be 8846 803e 029c 353d b81c df3c
00000200: aab3 36be 0e7f 5b3e 51de 743e 9851 27bc
00000210: 31eb 09be d28d b9bd a26e c6bd 2e44 d23d
00000220: bad3 e5bd ce4c 403e 3485 a8bd 44cf 3b3e
00000230: d381 26bd 616d eebd be9f 5a3e 46c0 a7be
00000240: fe4e 3cbe 5ca6 9b3e 0c68 2fbe 35dd 6abd
00000250: 1a56 24bb 60b6 cabd 263d 87be ee53 40be
00000260: c68e 76be 286e 05be b04a 0bbe 9fdc dc3d
00000270: 2ea4 7a3d 1680 50bd fe59 a23e a703 81bc
00000280: 3301 f33b 05e9 1b3e d80b cbbd b105 a9bd
00000290: 98a0 1f3e 8f17 0fbe 9145 903d f36e 65be
000002a0: 25a8 903b 8aff d9bd c32e 08be 0572 923e
000002b0: a5a5 d5bd 5c26 32be 1fa8 b43d e7ea 2abd
000002c0: 9329 69be ffb2 f1bd 0508 77bd 21d3 d73d
000002d0: aa02 9d3e fa8e 08be 683f 8f3d d005 70bb
000002e0: 0a3b 4f3e 4e6d 323e 45c4 84bc 4467 893d
000002f0: 6c02 65be ebe7 1dbe 9a24 8fbd 490b 553d
00000300: 74b0 06be 4c09 94be 71e3 583e 4a4f a8be
00000310: d5ac 91bd 4003 2f3e 2771 cbbc a2cf 673e
00000320: f1fb 5e3d 44f3 5cbe a55c a0bd 4d76 6e3d
00000330: 16b6 163e b615 54bd 61ba b73d 8aa8 b03c
00000340: 9487 393e 686a 49be 8bf4 1cbe 39b4 bfbc
00000350: d147 74be b0c6 713e e9ea 3cbd 62c6 bebc
00000360: 51b3 1c3d a883 73be b3c1 36be cb65 91be
00000370: f603 c1bd 19c5 52bd c203 5fbe 20fa 92be
00000380: 7955 163d d8cd 2d3e ce5a 30be d88e a53d
00000390: 9368 19bd 44ed 31bc c404 00be c289 8dbe
000003a0: eccb d7bd 665a be3e aba0 95bd 0415 4c3e
000003b0: 54ed 903d 7678 c4bd 01a0 803e 64cf 873e
000003c0: 70dc a83d ae91 583e 1f2f 05be ab1b c73d
000003d0: 70e7 b4bb 8a52 3cbe c531 a8bd 8656 78be
000003e0: fc95 b03d 2d44 84bd 830d 583e 3c71 183d
000003f0: 5cbd e03c 8cfb 52bd c0e8 dc3c eaef 11be
0.14806244 -0.0043701413 0.20254673 -0.31030637 0.044567265 -0.035002854 0.19840065 0.39667714
0.013943241 -0.3541863 -0.34946007 -0.1964877 0.11516371 0.005678053 -0.07332437 0.05993132
-0.19545746 -0.030319678 0.03904589 -0.10956211 0.34418866 -0.052776165 0.11940159 0.054829553
0.10000584 0.36929104 0.1759176 -0.049627382 0.054824322 -0.077922374 0.3780091 0.16316661
0.141363 -0.31817827 0.058510605 -0.047797523 -0.20238021 0.285582 0.1649082 0.057077948
0.080803856 -0.28891996 -0.26914847 -0.13002773 0.11872404 0.024262175 0.13015622 0.1493495
-0.21899915 0.31872806 0.121208005 0.0902473 0.03635845 -0.034115717 -0.1808576 0.07297542
-0.08815033 0.102459185 0.37318948 0.3552855 -0.077154435 -0.1851307 0.0058402936 0.041329905
-0.2331838 0.2776003 -0.31936073 0.17375538 0.30909497 -0.28064173 0.05188456 -0.25429904
-0.11980538 0.055707023 0.04183252 0.2596145 -0.14767686 -0.105646886 -0.01286233 -0.056807954
-0.117128074 -0.16914889 -0.123300776 -0.0036759742 0.27476814 -0.04114487 -0.24039245 0.087266676
0.093397826 -0.052053485 -0.0012483 0.26147026 -0.0022782383 -0.15815547 -0.099849775 -0.11538585
-0.14836538 0.31743783 -0.29450208 0.38818842 0.24213311 -0.042873114 -0.011942357 -0.32475197
0.41599527 0.42562112 0.2234106 0.35468647 -0.042088073 -0.019873057 -0.015401129 -0.24879831
-0.17751825 0.28210944 -0.035443183 0.36824223 0.2333633 -0.14081027 -0.36165646 -0.19956465
0.30349925 0.13272658 0.37010887 0.35124728 -0.32628995 0.2505381 0.044338234 0.027235374
-0.17841974 0.21435186 0.23912932 -0.010212325 -0.13468625 -0.09060253 -0.0968907 0.102669105
-0.11222024 0.18779299 -0.082285315 0.18340784 -0.040651154 -0.11641956 0.2135 -0.3276388
-0.18389508 0.3040036 -0.17129534 -0.057339866 -0.0025075735 -0.098980665 -0.2641384 -0.18782017
-0.24077901 -0.13030303 -0.1360271 0.10784268 0.06119173 -0.050903402 0.31709284 -0.015748812
0.0074159144 0.15225609 -0.099143684 -0.08253039 0.15588605 -0.1397383 0.07044519 -0.22405605
0.0044145756 -0.10644443 -0.13299088 0.28602615 -0.10431985 -0.17397445 0.08821129 -0.041727927
-0.22769766 -0.11801719 -0.060310382 0.105383165 0.30666095 -0.13335791 0.06994516 -0.0036624558
0.20237365 0.17424509 -0.01620687 0.067091495 -0.22364205 -0.15420501 -0.06989403 0.052012715
-0.13153249 -0.28913343 0.21180512 -0.32872993 -0.07113043 0.17091084 -0.024834229 0.226378
0.05443949 -0.21577173 -0.078301705 0.05821829 0.14717898 -0.051778518 0.08971096 0.02156474
0.18118125 -0.19669497 -0.1532766 -0.023401367 -0.23855521 0.2361095 -0.046122465 -0.023287956
0.038256947 -0.23780692 -0.17847328 -0.28397974 -0.094245836 -0.0514575 -0.21778777 -0.28706455
0.036702607 0.16973054 -0.17222139 0.08083886 -0.037453245 -0.010859791 -0.12501818 -0.27644163
-0.10536942 0.37178344 -0.073060356 0.19929892 0.07076517 -0.095932886 0.25122073 0.26525414
0.0824517 0.21149322 -0.13006257 0.09722074 -0.0055207536 -0.18390861 -0.08212618 -0.24251756
0.08622357 -0.06458316 0.21098904 0.037217364 0.027434044 -0.051509425 0.026966453 -0.14251676

lstm.bias_ih_l0 f4 [64]
00000000: 7453 46be 8e2d cc3d f98c 65be 4e4f a4bc
00000010: 66d6 f73b f1c8 023e e9b7 5c3e 9ea7 a03e
00000020: 623e 1c3e 53ce 1f3e 2b58 093d 0aad 13bd
00000030: b988 7abe 42ef 64bc 3e9c 6d3e e3a5 84be
00000040: f2a3 36be f1b6 783e 67c5 2dbe 7966 f83d
00000050: 2ee7 863e 66fb 863e 4ab5 80bc 8e41 603e
00000060: bfd7 873e 8e8c 11be c90d adbd f83d 1e3e
00000070: 12fe 273d dca8 213d 72d6 843e 3b90 65be
00000080: 27e1 9e3e 8876 8f3e cae1 59bd ba46 d13d
00000090: 0d9f 03be 9afa a7bd dedc af3b 2497 703e
000000a0: c25c 503c 4b2e 213e f8aa 23be 7d3d a43e
000000b0: 0fab bdbc 34df c5bc 2fb6 123e b4f3 bcbe
000000c0: 74cd 0cbd 14d4 123e cf16 e2bd a33e 273e
000000d0: 382b e8bc 4abd 693d 562c 8b3e 0424 593e
000000e0: 8921 b03e ccfb 9f3e 43b6 8e3e f0b4 fa3d
000000f0: 7c77 9cbe a235 0b3e 1068 043e 489f 8d3e
-0.19367772 0.09969626 -0.22417058 -0.020057347 0.0075634 0.12771966 0.21554531 0.31377882
0.15258172 0.1560605 0.03353135 -0.036053695 -0.24466218 -0.013973059 0.23204133 -0.25907812
-0.17835978 0.24288537 -0.16969834 0.1212892 0.2634825 0.26363677 -0.015711445 0.21900007
0.2653179 -0.14213774 -0.08449895 0.15453327 0.041013785 0.039467677 0.2594486 -0.22418301
0.31031153 0.2802012 -0.053193845 0.10218568 -0.12853642 -0.08202095 0.0053669056 0.23495156
0.012717428 0.15740316 -0.15983188 0.32078162 -0.023152856 -0.024154283 0.1432731 -0.3690468
-0.034375623 0.14338714 -0.11039507 0.16332488 -0.02834092 0.057065286 0.27182263 0.21205145
0.34400585 0.31246793 0.2787343 0.12241542 -0.3055991 0.13594678 0.12930322 0.27660584

lstm.bias_hh_l0 f4 [64]
00000000: e538 f83c ec8c c3bd 8437 a2be 29ca c13e
00000010: 0157 953d 5a8c 6ebc 428a 483d 2f47 d83d
00000020: 9422 823d a047 6f3c 3ed7 5b3e 6555 2abe
00000030: ef1b 82bd b4a8 083e 0147 a33e 8049 033e
00000040: dc4a 873d d509 5f3e a4b4 89be 2dad d13e
00000050: 46fe dbbd 4e02 1abd 4ee5 093e 95f9 c93e
00000060: 030b 98bd bbb1 133e d13e 493c a7ac 07be
00000070: 2589 f7bd b0da 193e 2619 943d fb74 c4bd
00000080: e676 7b3e 4210 e73c 6bd0 463e 1a4d de3d
00000090: 20b9 983e b98c f8bd b7b0 023d fc46 3c3d
000000a0: 663c 193e 2bc0 7b3e c9c4 e93d 7ec3 a6bd
000000b0: e74c cf3e d3b1 46bd f046 073e fd7e 61bd
000000c0: 0d46 45bd cbf5 893c 71ef 17be 7208 11bd
000000d0: aafb d23e 42e8 a03e 308c 873e a4ab 593e
000000e0: 0344 673e 1b60 783d 0ad8 c83e 2e6c 773e
000000f0: 898d 4fbe 17cc 9b3b 9837 493e d6c5 e73d
0.030300567 -0.09548363 -0.3168298 0.37849548 0.07291985 -0.01455983 0.048959978 0.10560452
0.063542515 0.014604479 0.21468827 -0.16634138 -0.06352984 0.13345605 0.3189011 0.12821007
0.06606075 0.21781094 -0.2689563 0.40952435 -0.10741858 -0.037599854 0.13466379 0.39448228
-0.07423975 0.14423268 0.012283043 -0.13249455 -0.12086705 0.15024829 0.07231359 -0.09592625
0.24557075 0.028205995 0.19415443 0.1085455 0.2982874 -0.12136216 0.03190681 0.045966133
0.14964446 0.24585025 0.11414487 -0.08142756 0.4048836 -0.04850943 0.13210654 -0.055052746
-0.04816251 0.016840836 -0.14837433 -0.035408445 0.4120763 0.314272 0.26474142 0.21256882
0.22584538 0.06063853 0.39227325 0.24162361 -0.20268835 0.004754554 0.19650114 0.11317031

linear.weight f4 [5, 16]
00000000: 1a2b a83e dd42 bdbe 2723 b43d 7cbd f1be
00000010: fe41 87be 8bec 9a3e 084b f83e 5904 8a3e
00000020: e779 dabe 5469 96be b30c e8be a2fb 82be
00000030: c3d9 a03e ea83 153c b89e 86be 607e 6f3e
00000040: b3f8 7d3e 049c 99be 4d0c 863d 400c b0be
00000050: 8652 07bf 3bd8 053f 64f7 cd3e 9a1e a33e
00000060: e98e 2abf 4379 61be a2f4 99be 8a1a 17bf
00000070: 1346 3d3c d144 30be fd14 bdbd c996 b33e
00000080: d43d 55bd d929 c7be fc24 a33e 600a 76be
00000090: 0fda 5abe 8a80 e83e 3e2e 8a3e be75 c93e
000000a0: e3b1 00bf 43bf aabe 2d11 95be 3025 e4be
000000b0: ea74 f33d de9f 59be f101 e2bd 5a5b b93e
000000c0: 58ac d5bd a139 e4bd 5857 a43e 7dcf dbbe
000000d0: 1338 02bf 8405 fb3e 1576 c73e 1005 d63d
000000e0: fadb 1dbf 736e 9cbe 86d2 cfbd b396 08bf
000000f0: 68bc c0bd b383 883c ae83 02bf 993d 473e
00000100: 3193 eebd 79a3 edbe 0bd2 9bbd af8d d8be
00000110: 3007 e7be e316 b43e 9fb1 2e3f a8a5 f93e
00000120: 198a 71be 22dd 87be 3aef 6abe 0ac5 ffbe
00000130: 2fda c4bd ba7b 9dbc 65b3 edbe c2b5 5f3e
0.32845384 -0.36965075 0.08795767 -0.47214878 -0.26417536 0.30258593 0.48494744 0.26956442
-0.4267113 -0.29377234 -0.4532219 -0.25582606 0.3141614 0.009125689 -0.26292968 0.23388052
0.24801902 -0.30001843 0.06545315 -0.34384346 -0.52860296 0.52283067 0.40227807 0.31859285
-0.66624314 -0.22018914 -0.30069453 -0.5902487 0.0115523515 -0.17213751 -0.09232519 0.35075977
-0.052060917 -0.38899115 0.31864154 -0.24027395 -0.21372245 0.45410568 0.26988405 0.39347643
-0.50271434 -0.33349046 -0.29114667 -0.44559622 0.11887534 -0.2125239 -0.110355265 0.36202508
-0.104332626 -0.11143804 0.32097888 -0.42931738 -0.5086681 0.49027646 0.38957277 0.10450184
-0.6166378 -0.30553016 -0.10147576 -0.5335495 -0.09410936 0.016664362 -0.5098218 0.19457091
-0.11649168 -0.46413782 -0.07608422 -0.42295596 -0.4512267 0.3517371 0.6823978 0.48759198
-0.23587836 -0.26535898 -0.2294282 -0.49955016 -0.09611928 -0.019224036 -0.4642593 0.21846679

linear.bias f4 [5]
00000000: 5e8c 03bf d211 55bc 044d cdbe 65d6 b5be
00000010: b3d5 a7bc
-0.5138606 -0.013004737 -0.4009782 -0.35515133 -0.020487642
