seeding/seeds/0_0.pt (torch, 8224 bytes, 6 tensors)

lstm.weight_ih_l0 f4 [64, 4]
00000000: 2e93 b9bd 6123 5b3e 4e4f 90be ea90 5a3e
00000010: 3546 863e 43b7 21be 7382 0e3e ba42 53be
00000020: 4f9e c03c bb52 853e 578c 12bd c0e5 953e
00000030: 823a a1ba 2350 71be 94f2 8f3d e4cc 713d
00000040: 010a a8be a8d4 5cbd f618 d8bd 1596 573e
00000050: bad8 72be 0343 f13c 3965 203d 81cc 2bbd
00000060: 78be 843e be46 1cbc b2b2 90be 9729 a83d
00000070: c171 c13d 67fa 113e 2b17 a5bd ee32 1fbe
00000080: 238f 50be b499 4b3d a167 2d3e 9d0b a43e
00000090: 95db 853d 12e2 3e3e 2baa f23d 1dad 353e
000000a0: 99a3 9bbe f2ab 3fbe 295f c8bc 88c7 5e3e
000000b0: a2c4 553e 142e 3f3d bb8f 5e3e d8f8 673e
000000c0: 4069 80be 0d03 0d3e 189f c8bd c9f5 c9bd
000000d0: ff12 e0bc 7bd2 5ebe 6bc2 403e 9947 11be
000000e0: d48b afbe 48f1 0f3e 093d af3d 31bb 543e
000000f0: db40 123d 3a2f 783b bf98 44be d81b a23e
00000100: d740 09be a97d 5dbe 2752 a13c f826 86be
00000110: 067c a23d 4f2f 32be 2e19 2b3d 4f3d 6fbe
00000120: 7ad3 393b a3f1 863d 8adf 133f 06a4 f73e
00000130: 551b 8ebe 24d1 7c3e 4419 5d3e 1943 623e
00000140: 7189 70be 2ab1 153e 7c7c 35be d52a c53d
00000150: 53f0 5fbe 616f 983e 1402 9ebe 60fb 1a3d
00000160: 8066 9d3e 25fc 1e3e aba2 733e 6448 103e
00000170: 32ee 443e a709 a83d 10f8 5d3d d2e5 f5bc
00000180: 5f5f 8ebe ab42 36bd 2adf 49be fff6 9d3e
00000190: 959e 51be a9af 943d 2af5 87bd e1ba 0c3e
000001a0: fad4 04be a81c 0d3e 93af efbd 9a40 9c3e
000001b0: f6ca 3cbc 5259 403e 97ef bd3e 60a0 933e
000001c0: 6b17 77be 7d0e f7bd 62c5 123d 1622 673e
000001d0: 2260 8abe 98f5 683e aa65 b9bc da6b 033d
000001e0: f580 58be ea3f 83bd 9c19 7f3d 85c5 2ebd
000001f0: 4572 e2bd 6a2b 9a3e 6a26 10be aa32 5d3d
00000200: c505 91bd 4294 cc3d 7730 383e 3666 d03d
00000210: e43b d53d 2ad1 66bd 7327 0b3e a0fd 523e
00000220: 192a 90be 62c8 903e 407a 343d c1eb 1fbe
00000230: 386a 8ebe cdff 233e bdef 403e ceed 9c3e
00000240: d654 533d faf8 85be 44cb 7f3e 1c97 b93d
00000250: 8398 833e a111 383d f491 2dbd 5aad f637
00000260: c7f6 d13d ff1f bdbd 91ed d83d 1f28 76bd
00000270: 64e3 fa3b 46a6 3b3e 8b12 e5bd cf25 92bd
00000280: b0ff 82be 6b1d 653e d721 2a3e f85c 7e3e
00000290: 4e33 903e 909c 373d 657d ddbd 3932 51be
000002a0: 1fcf f5bd 9e9c 57bc e07b 62bc d285 893e
000002b0: 0e96 ebbc af53 873e ef2f 81bd ee83 96bd
000002c0: c276 15be 8f8c e73b 6096 363e edfd 35be
000002d0: 5b74 9dbe 39b8 c0bd 7f30 7c3d 48fb 02be
000002e0: a28e cebd ee23 8f3d f55d e2bb f3ec b3bd
000002f0: db1f df3e f7e5 49bd e1d3 05bd 57e0 85be
00000300: bf26 e13c b7e9 e93d afbb 09be 6d33 6ebe
00000310: c30f 3d3e 7067 90be 61cf ae3d a768 943d
00000320: b28e 71be 09a5 b637 d992 30be 46ad 233d
00000330: 970a 27be 0407 0ebe 207e 383d 8a58 863e
00000340: 853a 2ebe 3695 0c3b 7201 6ebd bade 36be
00000350: 036b 85be b382 e53d 57f1 e63b a56a 6e3e
00000360: e078 d73d 7044 2a3e 3a5b 8ebd 6340 34be
00000370: 02c1 a53d 83f6 1ebe 2b71 32bd c05b 2ebd
00000380: 3274 42be ff66 58be f735 20be f8f4 643e
00000390: 5532 c2be de28 a1bd c7d9 09be eef5 b23b
000003a0: 220a cabd 2b65 273e 6502 853c 4eb6 763e
000003b0: d647 47bd 28f4 a53e 71ae 443e 0ab4 50be
000003c0: d12f 77bd 7f8d 673e de9d 543e c4cc 063e
000003d0: 06aa 0fbd ae3a 4e3e 15fd d63c a398 c13e
000003e0: e106 babe 2e68 f5bd f4ca 8d3d fa74 213e
000003f0: 8ed4 bbbe 7840 393d ceee 393c 0245 e83e
-0.090612754 0.21400215 -0.28185505 0.21344343 0.2622544 -0.15792565 0.1391695 -0.20630923
0.023512987 0.2603968 -0.03577837 0.29276848 -0.0012300762 -0.23565726 0.0702869 0.05903329
-0.32820132 -0.053913742 -0.10551636 0.21053346 -0.23715487 0.029450899 0.039159033 -0.041943077
0.25926566 -0.009538351 -0.28261334 0.08211058 0.09445525 0.14255677 -0.080610596 -0.15546772
-0.20367102 0.04970713 0.16934063 0.3204011 0.065360226 0.18640926 0.11848863 0.17741819
-0.30398253 -0.18717936 -0.024459438 0.21755803 0.2087579 0.046674803 0.21734516 0.2265352
-0.250803 0.13770695 -0.0979597 -0.09861333 -0.027352808 -0.2175998 0.18824165 -0.14187469
-0.34286368 0.14056885 0.085565634 0.20774533 0.035706382 0.0037869946 -0.19198893 0.31661868
-0.1340364 -0.21629967 0.019692494 -0.26201606 0.07933812 -0.1740086 0.04177206 -0.23363231
0.002835481 0.06589057 0.5776297 0.48367327 -0.27755228 0.24689156 0.2159167 0.22095908
-0.2348993 0.14618364 -0.17723268 0.0962731 -0.2186902 0.29772475 -0.3086096 0.037837386
0.30742264 0.15525873 0.23792522 0.14090115 0.1923149 0.08204966 0.05419165 -0.030016813
-0.27807137 -0.044497173 -0.19714037 0.30852506 -0.2047065 0.07260067 -0.06638558 0.13743164
-0.12971869 0.13780463 -0.1170341 0.30518037 -0.011522999 0.18784073 0.37096855 0.28833294
-0.24130027 -0.1206331 0.03583277 0.22571597 -0.2702647 0.22749937 -0.022631485 0.032085277
-0.21142943 -0.06408675 0.062280282 -0.042668838 -0.110569514 0.30111247 -0.14077154 0.054003395
-0.070811786 0.099892154 0.17987238 0.10175745 0.10411814 -0.05635182 0.13589267 0.20604563
-0.28157118 0.2827788 0.0440619 -0.15617277 -0.27815413 0.16015549 0.18841453 0.3065018
0.051594578 -0.26166517 0.24979883 0.09062025 0.25702295 0.044938687 -0.04237552 2.9406208e-05
0.10252147 -0.092346184 0.10592187 -0.060096856 0.0076565016 0.18325147 -0.111851774 -0.07136118
-0.255857 0.22374503 0.16614471 0.24840152 0.28164142 0.044827044 -0.10814933 -0.20429315
-0.12002396 -0.013159899 -0.013823479 0.2685991 -0.028758075 0.26431033 -0.06307971 -0.07349382
-0.14596084 0.0070663164 0.17830801 -0.17772646 -0.30752835 -0.09410138 0.061569687 -0.12791169
-0.10085799 0.06989275 -0.006908173 -0.08785429 0.4357899 -0.049291577 -0.032672767 -0.2614772
0.027484296 0.11421531 -0.13450502 -0.23261805 0.18463044 -0.28203917 0.08535648 0.07246523
-0.2358959 2.1772941e-05 -0.17243518 0.03996017 -0.16312633 -0.13869864 0.045042157 0.26239425
-0.17014511 0.0021451241 -0.058106847 -0.17858401 -0.26058206 0.112065695 0.007047813 0.23282869
0.10521102 0.1662767 -0.06950994 -0.17602687 0.08093454 -0.15523724 -0.043564957 -0.04256797
-0.18989637 -0.2113304 -0.15645586 0.22359073 -0.37929025 -0.07869123 -0.13461982 0.005461446
-0.09865214 0.16347186 0.016236493 0.24092981 -0.048652492 0.3241284 0.19207169 -0.2038118
-0.060348336 0.2261257 0.20763347 0.1316405 -0.035074256 0.20139572 0.026243726 0.37811765
-0.36333373 -0.11982761 0.06923476 0.1576728 -0.36685604 0.045227498 0.011348439 0.4536515

lstm.weight_hh_l0 f4 [64, 16]
00000000: 1103 18bc b67d 0ebe 0497 8c3e 9060 d23d
00000010: 9f97 42be a24c 253e 65ed 603e 023a 763e
00000020: 2cbc 363e 1b81 f2bc ed44 983e 721d 9abc
00000030: 6d26 66bb b5ba 9b3e 96e8 423e 6bda bfbd
00000040: 7c61 273e fb20 3b3e 7207 f4bd ff02 f4bc
00000050: aba7 c3bb 7968 8d3e 4c10 4d3d 1092 eebc
00000060: 1b15 f8bd 0012 e0bd 0a4e b23d f537 9f3d
00000070: 607c 9cbe 65c1 5dbd e0f3 71bc 66d4 433e
00000080: 1bbb 873e 5719 40bd f843 a33c 2010 963d
00000090: 00fb 66be 28db bebe 5b90 fc3d 8e6d 86be
000000a0: 36a4 bd3e 0856 e7be 3e02 263e cbe4 623e
000000b0: e5e2 0c3e 1c2a 093d 8197 2b3d ee02 d6be
000000c0: 6181 183e af95 42be 4d78 7f3e 7f62 623e
000000d0: a1e2 d23c 7b90 be3d 0342 8dbd d68f 58bc
000000e0: 0d3d 8c3e bb46 24be b6f9 f43d f677 92bd
000000f0: 92b7 973d e240 cbbd 0d4b ab3e fdfc 83be
00000100: f726 3cbe e853 41be e3db 19be bece 3a3e
00000110: 7881 0f3c 7a88 023e b3ec 06bd bcb3 6a3e
00000120: a138 34bd 91a4 803d aff7 283e 22e5 1e3e
00000130: a0cc 95bd 0283 94bd 60ed b93d d2d6 7a3d
00000140: 9729 6f3e d6e4 8dbd ca89 5b3d 5546 0d3d
00000150: 81ce 9bbd ccc1 ff3d 805d 28be b39d 803e
00000160: a914 17bd 98b6 123d adeb babd 2afe f73c
00000170: 2a01 37be e45c cd3d f83b ee3d e11a 7dbe
00000180: 2828 8dbd fd69 5fbd ce46 e53d 14ce 9bbe
00000190: bc5b 183e 27a8 143d 1f5e f0bd 2def 663e
000001a0: c0ac 1cbe fb6c ca3c b3b3 67be 93fc 373e
000001b0: 2763 193e 88c8 0b3d dc51 ebbd b144 ce3c
000001c0: 94da 4d3e a093 363e 434b aa3d 83d7 53be
000001d0: 507c e3bd a95f f6bd cba0 963d c5b9 98bd
000001e0: 2e12 7cbb 8a0f f03d 8d82 87be 24bd 853d
000001f0: 2334 03be ccf5 8dbe e969 ae3d b0c8 4dbe
00000200: 4afa 0c3b 9daa 2e3e f37f aa3c 036e 213e
00000210: cdd6 b8ba 16d8 563d 7f88 23be be44 333e
00000220: 1f4a a83e ea85 92bd 2137 20be e9a1 093e
00000230: ed0b 34be 04ab f2bd b2f6 c63b b7c3 21bd
00000240: 2b41 5abe 2caa 38be de67 2b3e 2ea8 d6bd
00000250: 032b c63d ab9b 313d 2dc7 8cbb ced0 87be
00000260: 45c8 8b3d c3a0 89be d667 bb3e db68 1b3e
00000270: 196e d8bc e241 543e 1907 ecbd 3e15 a9be
00000280: 275a 72be 7f3e 98be 64e0 853e b638 563d
00000290: 084b 01be 52f7 57bd 5211 84be f484 20be
000002a0: b126 383d e532 86be 515c 513e 48c5 663e
000002b0: 309f d73d 4bb0 7abc 6eec 2a3e 8b9c b83d
000002c0: b2d0 14bc 16cd 303e a162 d3bd 5263 d13e
000002d0: 35f8 d9bd ac60 793d 31b3 923e 5620 c5bb
000002e0: 2597 50be 650f fabd 9f87 1e3e 2343 08be
000002f0: 24a5 483d 6a30 56bd 2031 99bc c3ec 41bd
00000300: 8f01 fc3d e652 7c3d 69a4 8f3e f7e2 ef3d
00000310: fbeb 67bb 9bd2 c3bc 6d9c 1fbe bae6 0ebd
00000320: d979 a33e c0cc 5dbe d9a8 48bc 0e42 133e
00000330: eef8 cbbc ffd0 6a3d 18f8 6d3e cbfd 90bb
00000340: 10f4 913d 0161 bebd 77cc b0bc fd68 aa3e
00000350: c872 93bc 646e 67be bff7 283e be14 df3b
00000360: 3b3c 153e 4291 8c3c b0c1 3d3e 37c8 0ebe
00000370: d11e 3f3e d6b9 ea3e b2b6 b33e 40a0 5cbe
00000380: 0990 093e 5abd a83d 75da 97bd 480a 2c3e
00000390: adc9 7bbe 16bd 59ba 3cee a43d c901 693e
000003a0: 9f42 8ebc d832 a4be 2a9b e13d 6934 9e3e
000003b0: 86a9 4a3e efd6 73bd d109 00be c593 bcbd
000003c0: 180e 843d 162f d0be f2e4 1f3e 87d9 0fbd
000003d0: 8143 31bc b170 c6be b086 9abe 940c 9dbe
000003e0: 13ac cc3e 4ec1 84bb cc82 a43e 214f 603e
000003f0: bd2d 593e ae71 de3d 2f9c 11bc fe48 cb3c
-0.009278075 -0.13915142 0.27458966 0.10272324 -0.19003151 0.16142514 0.21965559 0.24045566
0.1784522 -0.029602578 0.29740086 -0.018812869 -0.0035118118 0.30415884 0.19034037 -0.09367832
0.16345781 0.182743 -0.119154826 -0.029786585 -0.0059709153 0.2761877 0.05006437 -0.029122382
-0.121134005 -0.10940933 0.08706291 0.07774345 -0.3056364 -0.054139514 -0.014767617 0.19123992
0.26509938 -0.046899166 0.019929871 0.07327294 -0.22556686 -0.37276578 0.12332221 -0.2625546
0.37039346 -0.45182824 0.16211793 0.2215759 0.13758428 0.033487424 0.041892532 -0.4179911
0.14893104 -0.19002412 0.24948235 0.22107886 0.02574283 0.09304901 -0.06897356 -0.013217887
0.27390328 -0.16042607 0.11961691 -0.07151787 0.0740806 -0.09924485 0.33455697 -0.25778952
-0.18374239 -0.18879664 -0.15025286 0.18242928 0.008758895 0.12747374 -0.032940578 0.22920126
-0.043999318 0.062813886 0.16500734 0.15517095 -0.0731442 -0.0725155 0.09078479 0.061240025
0.23355709 -0.069284126 0.053598203 0.034490902 -0.07607747 0.12488136 -0.16441917 0.25120315
-0.036884937 0.035818666 -0.09126983 0.030272562 -0.17871538 0.10027483 0.11632532 -0.24717285
-0.06892425 -0.054544438 0.111951455 -0.30430663 0.14878744 0.036293175 -0.11736702 0.22552176
-0.15300274 0.024710169 -0.22627144 0.17967443 0.1497923 0.03412679 -0.11490223 0.025179239
0.20102912 0.17829752 0.08315136 -0.2068768 -0.11107695 -0.120299645 0.073548876 -0.07457308
-0.0038462984 0.11721714 -0.2646679 0.06530216 -0.12812857 -0.2772659 0.085162945 -0.20096087
0.0021511489 0.17057271 0.020812964 0.15764622 -0.0014102102 0.05245217 -0.15970038 0.17506692
0.3286905 -0.07154448 -0.1564603 0.1344067 -0.17582674 -0.11849025 0.006071889 -0.03949329
-0.21313922 -0.18033665 0.16738841 -0.104812965 0.096761726 0.043361347 -0.0042962045 -0.26526493
0.06825308 -0.26880464 0.36602658 0.15176718 -0.026419686 0.20728257 -0.11524791 -0.3302402
-0.23667203 -0.2973518 0.2614776 0.052300178 -0.12626278 -0.052726097 -0.25794464 -0.15675718
0.044958774 -0.26210704 0.20445372 0.22536194 0.105284095 -0.015300821 0.16691753 0.09014233
-0.00908296 0.17265734 -0.10321546 0.40896088 -0.10643045 0.06088321 0.28652337 -0.0060158176
-0.20370157 -0.122099675 0.15481423 -0.1330686 0.048985615 -0.052292265 -0.018700182 -0.047344934
0.12304985 0.061602496 0.28055122 0.11713212 -0.0035388458 -0.023904135 -0.15587015 -0.034888007
0.319289 -0.21660137 -0.012247288 0.14380667 -0.024898972 0.05732822 0.23239172 -0.0044247857
0.07126629 -0.09295846 -0.021581871 0.33283225 -0.017999068 -0.22600704 0.16500758 0.0068078926
0.14573757 0.017159108 0.18530917 -0.13943563 0.186641 0.45844907 0.35100323 -0.21545506
0.13433851 0.08239241 -0.07414714 0.16800797 -0.24588652 -0.0008306069 0.08053252 0.22754587
-0.017365752 -0.3207004 0.11015923 0.3089936 0.1979123 -0.05953115 -0.12503745 -0.09207872
0.06448001 -0.40660924 0.1561468 -0.03511956 -0.010819317 -0.38757852 -0.30180883 -0.3067366
0.39975032 -0.004051364 0.3213104 0.21905185 0.21208854 0.108615264 -0.008887335 0.024815079

lstm.bias_ih_l0 f4 [64]
00000000: 9edc 4abd a413 c5bd 7876 843e d10b cc3c
00000010: 0674 403e 4844 c73d 80c8 8cbe bb98 3bbe
00000020: 78a4 e53b 9339 903e 9742 fc3d 539e e63d
00000030: cc6d 2dbe c715 0dbe aeff cdbc 89b1 833e
00000040: f890 353e 6c40 5cbe dfe4 843e 5c08 84bd
00000050: a326 1cbe 78b7 39be 0c47 263e 4dfa edbd
00000060: a05c 033e 73c3 cb3d c4d5 833e 94ec 933d
00000070: 2ca4 cdbc 2410 b23e 918d 983e f8cb 8d3e
00000080: fcb2 423e fb66 df3d afc0 783e 3787 3d3e
00000090: 8397 58be a755 83bd be50 883d 08c8 ecbd
000000a0: 093b 093e 1066 7dbe 87b5 463e 7c44 8d3d
000000b0: 296e 3b3c 0341 b6bd 5fed 883e c93b 07be
000000c0: e932 08bd e7e0 41bd 3ba1 89bd c820 383e
000000d0: a892 9bbd 336d 5f3e 65b3 843d 4abd a3be
000000e0: 502b 8a3d d69e 9d3e 7025 c03e 47c1 493e
000000f0: 420e f43e af18 563e 8829 a03e 9db0 be3e
-0.049526803 -0.09622887 0.25871634 0.024907978 0.1879426 0.097298205 -0.2749672 -0.18319981
0.0070081316 0.28168926 0.123173885 0.11260667 -0.16936415 -0.13777839 -0.025146332 0.25721386
0.17731082 -0.2150895 0.25955865 -0.06446907 -0.15249114 -0.18136394 0.1623804 -0.11620007
0.12828302 0.09949388 0.25749028 0.07222858 -0.025102697 0.3477794 0.29795507 0.27694678
0.1901359 0.10908314 0.24292253 0.18508612 -0.21151547 -0.06412821 0.06656025 -0.115615904
0.13401426 -0.24745965 0.19405185 0.06897828 0.011439838 -0.08899119 0.267436 -0.132064
-0.033251677 -0.047333624 -0.067202054 0.17981255 -0.07596332 0.21819 0.06479529 -0.31980354
0.067465425 0.30785245 0.37528563 0.19702636 0.47667128 0.20907854 0.31281686 0.3724412

lstm.bias_hh_l0 f4 [64]
00000000: 35cb f83d 63fa 39be a2fa a53d 3bd2 633d
00000010: 3c4f 9a3e 5c7a c3bc 7fd6 04be ba26 b3be
00000020: c2d9 aebd 2cc2 533e 78a5 483d 0538 54be
00000030: 0441 15be 01a1 0e3c a24b 6ebd d207 883e
00000040: 899a ed3d 6cb2 da3d e237 cf3e ebda ae3e
00000050: 4d5c ac3e dcef 393e 8686 2f3e 602f 0fbe
00000060: 323e d33d d7c5 de3d 070e 693e ec90 1e3e
00000070: 12be 553e 0376 f83d e90e 463e beee 41bc
00000080: 62f7 943e b4d6 44bd 6c70 48bc a9cc 333e
00000090: 7a65 4ebd 18df 5f3e 5114 e83d 8fd9 62be
000000a0: be93 b1bd d560 1ebd ee40 9b3e 1e77 8e3e
000000b0: 5d8b 6c3e c7a7 71bd 9506 8fbd 13b2 12be
000000c0: 9ff6 3abe e6d3 b6be 12fc ba3e 0f8e d03c
000000d0: 88f3 8a3e ab01 3c3e e45d 94bd a038 f1bc
000000e0: 5a7a 513e 84e0 ab3e 932b 02bc 57c5 d2bc
000000f0: 8ca3 6d3d 9d50 d63e 5d19 9b3d adea 723c
0.12148134 -0.18161921 0.08104445 0.055620413 0.30138576 -0.023862056 -0.12972449 -0.34990484
-0.08537628 0.2067954 0.04898593 -0.20724495 -0.14575583 0.0087053785 -0.058177598 0.26568466
0.11601741 0.106785625 0.40472323 0.34151396 0.3366417 0.18157905 0.1714116 -0.13982916
0.10314597 0.10877579 0.22759257 0.15484971 0.20873287 0.12131884 0.19341625 -0.011836706
0.29094988 -0.04805632 -0.012233835 0.1755854 -0.050389744 0.21862447 0.11332 -0.22153305
-0.08670758 -0.038666565 0.30322975 0.27825254 0.23100038 -0.058997896 -0.06983677 -0.14325742
-0.18258141 -0.3570854 0.3652044 0.025458364 0.27138925 0.18360011 -0.07244471 -0.029445946
0.2045683 0.3356973 -0.007944959 -0.025728865 0.0580173 0.41858378 0.07573197 0.014826459

linear.weight f4 [5, 16]
00000000: f66f 2f3e ea20 57be 003e d23c 28b9 74bd
00000010: 686e ab3d 489a 02bd 8a6e 603e 98cc 46be
00000020: 82c1 6ebe 984d 7fbe 9eed 1abe a81b 7fbe
00000030: 9852 efbd a0fa c63d 9450 97bd e8ad 513e
00000040: b47b 6abe e478 2d3e 447f 06be 0e3d 64be
00000050: 0a62 333e fc89 8f3d 6099 513c 60a9 f9bd
00000060: e096 c2bc ba56 2ebe 56cf 3b3e c4ae 95bd
00000070: 9cad 6ebe d075 21be b4fe ecbd 22d3 0a3e
00000080: 50c9 2bbe 587a 923d 6010 adbc 6014 013e
00000090: 1c5e fd3d 6e0b 0bbe 42f9 59be 58fa 2f3d
000000a0: eabe 48be 40fc 213e 9e3e 703e 086d 26bd
000000b0: c897 4dbd 0018 db39 dcd4 bbbd 54e7 eb3d
000000c0: 1e3a 6c3e 4645 49be 104a cc3d 1ee2 74be
000000d0: e073 6c3d 9858 453e 1286 4bbe d6bd 1ebe
000000e0: 8249 563e 74b2 6c3e 240c 82bd 6a5d 383e
000000f0: 684d 59be b075 2d3d 281e 7d3d 3ae2 303e
00000100: 744a 50be bd9f c7bd 24b3 bcbe 7211 b5be
00000110: 1d29 263e bf88 833e d3a9 373d 3ef8 9a3d
00000120: a36d 42be 9074 d03e 1c08 0bbf 2d33 8dbe
00000130: 24a4 fabe 3384 38bf bc5a f2be 8056 bf3e
0.17132553 -0.2100865 0.02566433 -0.05974689 0.08370668 -0.031885415 0.21917167 -0.19413984
-0.23316005 -0.24931943 -0.15129706 -0.24912894 -0.116856754 0.09715772 -0.07388416 0.20476496
-0.22898751 0.16940647 -0.13134485 -0.22288916 0.17517868 0.0700874 0.012792915 -0.12190509
-0.023753583 -0.17025271 0.18340811 -0.073087245 -0.23308414 -0.15767598 -0.11572018 0.13557103
-0.16776013 0.071522415 -0.021125972 0.12605429 0.123714656 -0.13578579 -0.2128649 0.042963356
-0.19604078 0.15818882 0.23461387 -0.040631324 -0.050193578 0.00041788816 -0.09171459 0.11518732
0.23069045 -0.19655332 0.09975064 -0.23914382 0.057727695 0.19272077 -0.19875363 -0.15502104
0.20926479 0.2311495 -0.06349972 0.18004385 -0.21220934 0.042348564 0.061796337 0.17273799
-0.20340902 -0.097472645 -0.36855423 -0.35364872 0.16226621 0.25690266 0.04483969 0.0756688
-0.18987136 0.4071393 -0.5430925 -0.27578107 -0.48953354 -0.7207672 -0.4733485 0.37370682

linear.bias f4 [5]
00000000: 5a72 4cbe ac58 d03d 4490 45be b0f5 6b3e
00000010: 3ee8 4fbe
-0.19965497 0.10173163 -0.19293314 0.23042941 -0.20303437
