seeding/seeds/0_1.pt (torch, 8224 bytes, 6 tensors)

lstm.weight_ih_l0 f4 [64, 4]
0.0017430604 -0.05565715 0.22491468 -0.104908645 -0.03146569 0.26193598 0.2512481 -0.034017317
-0.01781994 0.13363904 0.26217696 0.29018477 -0.100940645 -0.20428209 -0.28987736 -0.013697353
-0.11996837 0.18309082 -0.085150346 0.33961314 0.0063824942 0.14405118 0.17414106 0.16489737
-0.21047103 -0.083787255 0.27337354 -0.14824726 0.12244718 0.25265846 0.022161743 -0.0787576
-0.103647105 -0.33639988 0.46591526 -0.18957438 -0.28235278 -0.26550698 0.020121953 -0.24182
-0.28810492 0.19837876 0.079892986 0.16643609 0.16210645 -0.1343412 -0.20099308 -0.17572132
0.03776205 0.2170336 0.12196503 0.3346286 0.31680688 0.047621246 0.030284658 -0.30442423
-0.21759802 -0.11383808 -0.010510504 -0.14704208 -0.07096775 0.23728336 0.09362026 -0.0061901067
-0.18107463 0.1736651 -0.08657257 0.29819432 -0.11284061 0.0004140902 0.2305807 -0.21994841
-0.0046162973 0.29088968 0.25427565 0.4451121 0.16837303 0.10453847 -0.18130429 -0.29089925
-0.10686336 -0.16133568 0.30631548 0.2844462 -0.24758111 0.0010922162 0.12317979 0.25838172
0.018550673 0.031721514 -0.12537502 -0.056383427 -0.051030938 -0.24377167 -0.33171117 0.042228736
0.124556534 -0.10004148 0.30221844 0.12774459 0.024211474 -0.18662263 0.26464602 0.20231579
-0.020564912 0.11693149 0.23402728 0.39902905 0.18047388 -0.35214928 -0.24783126 0.024182824
-0.061633214 0.16260834 0.4031492 0.29199016 0.19436212 -0.21336314 0.3626717 -0.23424423
0.13424301 0.26239035 -0.1659559 0.05964322 -0.06507359 0.2836853 0.029095944 0.18106622
-0.17647657 0.05756761 0.1725627 0.07787349 -0.031436764 0.37482128 -0.08057311 0.22030382
0.41164216 -0.23733854 -0.040051203 -0.20607874 -0.08621381 -0.11195841 -0.12080666 -0.010519456
0.06102064 -0.20937265 -0.15093324 -0.28129968 -0.18895325 -0.009299863 0.09267538 0.26667908
-0.1492382 -0.038076073 -0.19301464 -0.03173269 0.00300643 -0.18721181 0.31498286 -0.24106005
0.13857728 0.18182817 0.14339404 -0.13472393 0.2543005 0.19693452 0.16717897 0.24253824
-0.23560329 0.17533062 0.11395758 0.10393018 0.09368155 0.012668857 -0.05396432 0.31842488
0.28342456 -0.16011174 -0.23490575 -0.038270872 0.034766212 -0.02769157 -0.29716098 -0.13397713
0.06951895 0.041498937 -0.22409834 -0.13178827 -0.21649595 0.15550204 0.012383983 0.21742941
-0.11803271 0.29292518 0.12254585 0.13421309 -0.06630388 -0.024766495 -0.1492486 -0.08993521
-0.14398399 0.11365069 0.17390361 0.45753482 0.31900832 -0.04629451 -0.15253772 -0.34139854
-0.29454857 0.18097936 0.050827038 0.04401212 -0.41707152 0.024041176 0.01927958 -0.05611854
-0.26807442 0.20275773 0.025196277 0.20762624 -0.18625192 0.025446841 -0.21129215 0.09167159
-0.03505166 0.19805586 0.089997746 -0.0872287 -0.1170311 0.20840439 0.26041982 0.068093754
-0.36608467 0.0010850303 0.45419952 0.20410572 0.049806744 -0.04499741 -0.10505373 0.08990831
-0.33798584 0.08394362 0.3687448 0.1750798 -0.07311773 -0.10276429 0.28207436 -0.23968732
-0.16877805 0.10936096 -0.09035673 0.020426668 -0.13018455 0.21219745 -0.055263404 0.33541745
00000000: 6777 e43a c0f8 63bd 0950 663e 58da d6bd
00000010: 2be2 00bd 791c 863e 97a3 803e be55 0bbd
00000020: 1ffb 91bc acd8 083e 0f3c 863e 1993 943e
00000030: f8b9 cebd 532f 51be ce6a 94be dd6a 60bc
00000040: fab1 f5bd 297c 3b3e 4e63 aebd c6e1 ad3e
00000050: 3e24 d13b 2782 133e 0952 323e dbda 283e
00000060: b885 57be a798 abbd 9ef7 8b3e 21ce 17be
00000070: 96c5 fa3d 735c 813e 8b8c b53c aa4b a1bd
00000080: ef44 d4bd 9b3c acbe 728c ee3e c91f 42be
00000090: 8b90 90be 88f0 87be cbd6 a43c a99f 77be
000000a0: 7d82 93be cd23 4b3e ef9e a33d 396e 2a3e
000000b0: 3cff 253e bd90 09be 21d1 4dbe 4af0 33be
000000c0: 61ac 1a3d 0e3e 5e3e cdc8 f93d 7154 ab3e
000000d0: 8334 a23e 7f0e 433d 8817 f83c 7edd 9bbe
000000e0: 04d2 5ebe f023 e9bd 4034 2cbc 3392 16be
000000f0: 8a57 91bd 69fa 723e fbbb bf3d 61d6 cabb
00000100: a16b 39be 44d5 313e f64c b1bd edac 983e
00000110: fa18 e7bd 3f1a d939 591d 6c3e 283a 61be
00000120: 4f44 97bb 7eef 943e 6b30 823e bce5 e33e
00000130: fb69 2c3e 4418 d63d d5a7 39be bff0 94be
00000140: 2ddb dabd 2e35 25be 62d5 9c3e efa2 913e
00000150: e785 7dbe b228 8f3a b045 fc3d 9c4a 843e
00000160: 95f7 973c 6bee 013d 4f62 00be 4ff2 66bd
00000170: d105 51bd 489f 79be 0cd6 a9be 0af8 2c3d
00000180: 7f17 ff3d 8ce2 ccbd 60bc 9a3e 7acf 023e
00000190: 2457 c63c 011a 3fbe af7f 873e df2b 4f3e
000001a0: bf77 a8bc c779 ef3d d9a4 6f3e 894d cc3e
000001b0: 25ce 383e e94c b4be 7ac7 7dbe 0f1b c63c
000001c0: 1c73 7cbd cd82 263e 9269 ce3e bc7f 953e
000001d0: dd06 473e de7b 5abe 1bb0 b93e b8dd 6fbe
000001e0: 0077 093e 0758 863e 58f0 29be 734c 743d
000001f0: 4d45 85bd 333f 913e 9e5a ee3c 6c69 393e
00000200: 46b6 34be 04cc 6b3d 47b4 303e 237c 9f3d
00000210: d6c3 00bd 93e8 bf3e 8403 a5bd 5397 613e
00000220: c3c2 d23e e008 73be bb0c 24bd 4e06 53be
00000230: de90 b0bd 734a e5bd 7b69 f7bd cc59 2cbc
00000240: c7f0 793d c965 56be 3e8e 1abe 8306 90be
00000250: f67c 41be 745e 18bc 97cc bd3d 298a 883e
00000260: e6d1 18be a8f5 1bbd a1a5 45be 23fa 01bd
00000270: 8707 453b 74b4 3fbe 6f45 a13e 72d8 76be
00000280: 34e7 0d3e 2a31 3a3e e3d5 123e 12f5 09be
00000290: ad33 823e 34a9 493e f730 2b3e f25b 783e
000002a0: fd41 71be df89 333e 9762 e93d 59d9 d43d
000002b0: 1ddc bf3d 0a91 4f3c b109 5dbd 9608 a33e
000002c0: 061d 913e 55f4 23be 228b 70be ebc1 1cbd
000002d0: 0467 0e3d 6ed9 e2bc 7c25 98be 4d31 09be
000002e0: f45f 8e3d cafa 293d 097a 65be 81f3 06be
000002f0: 1db1 5dbe ed3b 1f3e 30e6 4a3c d1a5 5e3e
00000300: 22bb f1bd 4afa 953e 52f9 fa3d 286f 093e
00000310: 54ca 87bd 1be3 cabc a0d4 18be f42f b8bd
00000320: 8a70 13be b1c1 e83d ca13 323e 0142 ea3e
00000330: 0f55 a33e 509f 3dbd d932 1cbe cacb aebe
00000340: 12cf 96be a752 393e 0330 503d 0e46 343d
00000350: 668a d5be 00f2 c43c 36f0 9d3c 8edc 65bd
00000360: 0d41 89be b99f 4f3e 6c68 ce3c f99b 543e
00000370: d3b8 3ebe e575 d03c f85c 58be 51be bb3d
00000380: 5492 0fbd 28cf 4a3e bd50 b83d f6a4 b2bd
00000390: 00ae efbd f667 553e bf55 853e bd74 8b3d
000003a0: 736f bbbe 9337 8e3a d78c e83e 1701 513e
000003b0: 2802 4c3d 344f 38bd 6926 d7bd d921 b83d
000003c0: 7b0c adbe a2ea ab3d 1ecc bc3e 1e48 333e
000003d0: c0be 95bd 1676 d2bd 0d6c 903e 9870 75be
000003e0: 27d4 2cbe a4f8 df3d f30c b9bd d455 a73c
000003f0: 194f 05be 4a4a 593e e15b 62bd d6bb ab3e

lstm.weight_hh_l0 f4 [64, 16]
0.3470068 0.12907135 -0.08605552 -0.03816588 -0.3146972 0.30075002 -0.26405665 0.23361944
0.34604412 -0.0024884206 0.20540646 -0.08418087 -0.031289767 -0.16539665 0.029848106 0.072019175
-0.2533574 -0.1080023 -0.17033105 0.2556586 0.30404705 -0.12980399 0.055457447 0.13476478
-0.13639022 -0.28827232 0.11089008 -0.014901194 0.22872117 0.22591497 0.016710922 -0.19602907
0.2032986 0.24131046 -0.12767261 -0.10983318 -0.4742031 0.22603056 -0.04162085 -0.0206476
-0.08411495 -0.14828596 0.18241653 -0.32162282 -0.35239756 -0.13816382 0.38773495 0.12252677
-0.21791917 0.09409704 -0.17066106 -0.09035077 -0.1249695 0.08930458 0.13619418 0.063760854
-0.1414171 -0.27168432 -0.09698124 0.24121213 0.1072393 0.29789126 -0.12703757 -0.1863373
0.07191771 -0.307742 -0.111154504 0.12816107 0.18158017 0.13642642 -0.09621671 0.036464512
-0.12605815 0.13689935 0.05607773 -0.02567608 -0.34088793 0.24453206 -0.06901678 0.27692208
-0.024654724 0.033729937 -0.17647848 -0.34503525 -0.20952523 0.20870633 0.095868185 0.18833555
0.32667693 0.046643943 0.19842698 -0.07625121 -0.24381737 0.124089025 -0.12245472 -0.012442709
0.21815462 0.025673037 -0.36261708 -0.27623868 -0.2974038 0.1990775 0.014087705 -0.19569047
-0.02969936 0.2439174 -0.18562646 -0.014987931 0.030257966 0.063182324 0.18367633 0.04499304
0.0030143277 0.033122137 -0.27232844 0.2794212 0.116186626 -0.12612061 0.19031392 0.1305447
-0.13015288 -0.16573928 -0.019779531 -0.071994595 -0.19790234 -0.0024968209 -0.04318534 0.13312688
-0.05887606 0.21224509 -0.44363034 0.3041045 -0.006695517 0.117931046 0.2765155 -0.12106351
-0.08962255 0.1948809 -0.0827997 0.025182558 0.01494305 0.34434563 -0.01753741 0.35170653
0.34340551 0.21274905 -0.5328284 0.1556363 -0.2114911 0.29775894 -0.16930866 -0.11860232
0.2704345 0.2991805 0.13748303 -0.015040116 -0.11089917 -0.07631551 -0.13665435 0.3557876
0.3301467 0.16464278 -0.18384036 -0.076359205 -0.033181556 0.085066564 -0.1764094 0.00043594764
-0.07503845 0.1756818 0.24272986 -0.17466868 0.02950143 0.05070947 0.17954762 -0.08379119
-0.39315438 -0.11176735 0.38393065 0.19565186 0.049526565 -0.17722851 0.053414382 -0.18175122
-0.011159542 0.09621198 -0.2745959 0.09607634 0.31025878 -0.03409301 0.033163402 0.09180453
0.25898847 -0.31464183 -0.032321956 -0.115476474 -0.23920639 0.025848988 0.09958062 0.12379367
-0.010850286 -0.023687897 0.24384733 -0.28217882 -0.29857448 -0.06440974 -0.104098365 0.21474029
0.01725093 -0.034834847 0.1741332 0.32496524 -0.11884097 -0.35309392 0.26432753 0.137414
-0.33415794 0.20237207 -0.09538176 0.08695748 0.005467199 0.20558713 0.056302264 -0.10561144
-0.12429697 -0.041750655 0.27188918 0.28753296 0.09290048 0.28022337 0.37251016 0.04689547
0.17301925 -0.19345357 -0.21338353 0.20465538 -0.16576873 0.32191208 0.18094459 -0.2880403
0.05538144 -0.15841822 -0.09828619 -0.32809362 -0.2348127 0.2984416 -0.06641988 0.122972116
-0.05557545 0.0920451 -0.041698873 -0.36365217 -0.006641881 0.030153694 0.12664668 0.32791466
00000000: e0aa b13e 482b 043e e03d b0bd d353 1cbd
00000010: fe1f a1be e8fb 993e 6f32 87be ef39 6f3e
00000020: b22c b13e c514 23bb 1256 523e 0567 acbd
00000030: b329 00bd bd5d 29be 0484 f43c ca7e 933d
00000040: 10b8 81be 4f30 ddbd 436b 2ebe afe5 823e
00000050: 0eac 9b3e 56eb 04be 5927 633d c7ff 093e
00000060: e1a9 0bbe 6e98 93be 571a e33d 2324 74bc
00000070: e235 6a3e 4156 673e 58e5 883c d8bb 48be
00000080: 822d 503e 171a 773e 9cbc 02be 38f0 e0bd
00000090: c0ca f2be 8e74 673e a07a 2abd 2825 a9bc
000000a0: 7544 acbd 46d8 17be 66cb 3a3e bfab a4be
000000b0: 746d b4be d17a 0dbe 3285 c63e 51ef fa3d
000000c0: 3426 5fbe f3b5 c03d c6c1 2ebe d309 b9bd
000000d0: 02f0 ffbd 52e5 b63d 7d76 0b3e 0d95 823d
000000e0: a5cf 10be 351a 8bbe 1a9e c6bd 5000 773e
000000f0: 47a0 db3d 3485 983e 2316 02be 35cf 3ebe
00000100: 9849 933d 5c90 9dbe f9a4 e3bd a83c 033e
00000110: 27f0 393e 5eb3 0b3e 440d c5bd d05b 153d
00000120: 6315 01be 582f 0c3e c3b1 653d a456 d2bc
00000130: dd88 aebe 9d66 7a3e ab58 8dbd bbc8 8d3e
00000140: b4f8 c9bc 6728 0a3d c6b6 34be 76a8 b0be
00000150: c88d 56be 1db7 553e 8a56 c43d 09db 403e
00000160: 3342 a73e b80d 3f3d 7130 4b3e 9829 9cbd
00000170: 43ab 79be 6322 fe3d 8ac9 fabd 81dc 4bbc
00000180: ed63 5f3e 4350 d23c f2a8 b9be 286f 8dbe
00000190: 5045 98be f9da 4b3e 1ed0 663c 1563 48be
000001a0: 124c f3bc 7cc5 793e dd14 3ebe f08f 75bc
000001b0: 8edf f73c bc65 813d a615 3c3e 9f4a 383d
000001c0: 078c 453b 14ab 073d a26e 8bbe 4c10 8f3e
000001d0: 41f3 ed3d c325 01be a7e1 423e 83ad 053e
000001e0: cc46 05be 8fb7 29be af08 a2bc e771 93bd
000001f0: e9a6 4abe b4a1 23bb 1ce3 30bd 6a52 083e
00000200: 0628 71bd c756 593e 8423 e3be 96b3 9b3e
00000210: 1166 dbbb d585 f13d 7193 8d3e 25f0 f7bd
00000220: 078c b7bd dc8e 473e e492 a9bd a74b ce3c
00000230: b2d3 743c 124e b03e 9daa 8fbc e112 b43e
00000240: d9d2 af3e e3da 593e 7167 08bf 1f5f 1f3e
00000250: 1f91 58be dc73 983e 405f 2dbe c6e5 f2bd
00000260: 6476 8a3e 302e 993e 5ac8 0c3e d26a 76bc
00000270: 1b1f e3bd 4e4b 9cbd 1eef 0bbe cb29 b63e
00000280: fd08 a93e 1e98 283e a640 3cbe 3762 9cbd
00000290: 62e9 07bd 6137 ae3d aaa4 34be e78f e439
000002a0: c2ad 99bd eee5 333e 2d8e 783e 59dc 32be
000002b0: fcac f13c bcb4 4f3d 55db 373e b79a abbd
000002c0: 884b c9be 48e6 e4bd 8f92 c43e f658 483e
000002d0: 5edc 4a3d 647b 35be 0ac9 5a3d fe1c 3abe
000002e0: 83d6 36bc c90a c53d d597 8cbe acc3 c43d
000002f0: 3dda 9e3e 1da5 0bbd 59d6 073d 0304 bc3d
00000300: 239a 843e bc18 a1be 0764 04bd ee7e ecbd
00000310: 85f2 74be 42c1 d33c edf0 cb3d 8987 fd3d
00000320: 66c5 31bc 1f0d c2bc 1db3 793e be79 90be
00000330: c1de 98be 41e9 83bd 8631 d5bd e1e4 5b3e
00000340: d351 8d3c fcae 0ebd f94f 323e d861 a63e
00000350: e562 f3bd bac8 b4be f055 873e 41b6 0c3e
00000360: c016 abbe a03a 4f3e 8357 c3bd c316 b23d
00000370: 3026 b33b 6f85 523e 349d 663d d04a d8bd
00000380: 698f febd bc02 2bbd 0f35 8b3e 8537 933e
00000390: 9b42 be3d 7079 8f3e a7b9 be3e 7715 403d
000003a0: f52b 313e b118 46be 3681 5abe 2e91 513e
000003b0: 47bf 29be a9d1 a43e 8a49 393e 057a 93be
000003c0: a6d7 623d 6338 22be 454a c9bd e3fb a7be
000003d0: be72 70be 56cd 983e 2507 88bd ced8 fb3d
000003e0: 15a3 63bd 2482 bc3d 70cc 2abd 9e30 babe
000003f0: 23a4 d9bb e104 f73c abaf 013e 6ee4 a73e

lstm.bias_ih_l0 f4 [64]
0.28562623 -0.061976314 0.21582617 0.087320395 0.22104438 0.30969265 -0.13153766 -0.18020807
-0.28936827 0.2531485 0.03788337 -0.34107608 0.34364265 -0.22285505 -0.2117725 0.23490314
0.022105591 0.09513165 0.28917396 0.0058904984 0.109232865 -0.12320208 -0.24914403 0.048955794
-0.18189457 -0.26288202 0.28061306 -0.33061594 0.32158127 -0.28857508 -0.31455636 0.038828656
-0.086498246 0.29473937 -0.14999798 0.014858743 -0.20595206 0.059067387 0.04531038 -0.3638949
0.012934931 0.18213233 0.22903477 -0.1491766 -0.042931028 0.04363826 -0.105947286 0.32952732
0.34411034 -0.12145166 0.3296747 0.072545595 0.22602671 0.21641137 0.2828684 0.20424253
-0.12170452 0.40304455 0.11430601 0.010116895 -0.038637318 -0.13523553 -0.22497052 0.45114842
00000000: 9a3d 923e e0da 7dbd 8901 5d3e 09d5 b23d
00000010: 7559 623e 0990 9e3e cfb1 06be 7788 38be
00000020: 1428 94be ae9c 813e 982b 1b3d 86a1 aebe
00000030: eef1 af3e 1d34 64be e4da 58be 738a 703e
00000040: c916 b53c 62d4 c23d 9c0e 943e 1505 c13b
00000050: 7bb5 df3d 5f51 fcbd 9d1f 7fbe df85 483d
00000060: 9242 3abe 7998 86be 84ac 8f3e 7e46 a9be
00000070: 4da6 a43e 1dc0 93be 880d a1be cc0a 1f3d
00000080: fe25 b1bd 14e8 963e 1299 19be 1672 733c
00000090: 19e5 52be a5f0 713d 6197 393d 6f50 babe
000000a0: 08ed 533c e680 3a3e 1788 6a3e c0c1 18be
000000b0: 72d8 2fbd 08be 323d e4fa d8bd ceb7 a83e
000000c0: 3b2f b03e a6bb f8bd 1fcb a83e c992 943d
000000d0: 8c73 673e f19a 5d3e 20d4 903e f424 513e
000000e0: 3840 f9bd db5b ce3e 4519 ea3d 55c1 253c
000000f0: 2a42 1ebd 2f7b 0abe ac5e 66be edfc e63e

lstm.bias_hh_l0 f4 [64]
0.2598318 -0.20391226 0.33651945 0.037141018 -0.13888954 -0.07657814 0.17424883 0.11290481
-0.25231838 0.096266195 0.18025045 -0.09464474 0.23511861 -0.21908171 -0.044510037 0.37519026
0.31620944 0.2991516 0.17043416 0.018992035 0.33917686 0.28537223 0.11467201 0.01658654
-0.09898463 0.04695255 -0.05956645 -0.09491553 0.19406085 0.13210541 -0.30947906 0.26882836
0.038290124 -0.020261262 -0.09757021 0.3516192 -0.15410137 0.31463802 0.25591972 -0.29932866
-0.024893697 -0.22706288 0.3304991 -0.0014278522 0.060528405 0.10446177 -0.049655303 0.09225824
0.2702721 0.021212975 0.3789916 0.10565318 -0.09628037 0.28941014 -0.052693665 -0.20133048
-0.010957645 -0.016742678 0.37307447 -0.026054822 0.35280943 -0.3318812 0.024788255 0.39016756
00000000: ac08 853e 60ce 50be 474c ac3e 2e21 183d
00000010: 0f39 0ebe 00d5 9cbd 496e 323e a33a e73d
00000020: e02f 81be 3627 c53d 9393 383e 1ad5 c1bd
00000030: efc2 703e f556 60be 2850 36bd f018 c03e
00000040: 34e6 a13e 662a 993e 4b86 2e3e 2f95 9b3c
00000050: 97a8 ad3e 4f1c 923e 29d9 ea3d 7fe0 873c
00000060: 74b8 cabd 5151 403d f3fb 73bd 1363 c2bd
00000070: e3b7 463e a446 073e 0a74 9ebe dfa3 893e
00000080: 1bd6 1c3d f2fa a5bc e4d2 c7bd 6f07 b43e
00000090: c0cc 1dbe 3c18 a13e e907 833e 9b41 99be
000000a0: deed cbbc 2c83 68be 2e37 a93e c526 bbba
000000b0: a2ec 773d 0df0 d53d 5c63 4bbd e3f1 bc3d
000000c0: 1b61 8a3e d5c6 ad3c 300b c23e b260 d83d
000000d0: a52e c5bd 912d 943e 50d5 57bd 9429 4ebe
000000e0: b287 33bc f127 89bc 9e03 bf3e ec70 d5bc
000000f0: 70a3 b43e 55ec a9be bd10 cb3c 0bc4 c73e

linear.weight f4 [5, 16]
-0.24068052 -0.22337937 -0.13498488 -0.20936146 -0.024846762 0.15151599 0.11535856 -0.12450555
-0.12140128 -0.19965711 0.0027720034 -0.049179435 -0.0315471 -0.033855915 0.03647971 0.014316589
0.12762645 -0.111071914 0.09379217 0.24106112 0.0885399 -0.10616824 0.2263934 -0.18115255
-0.18447593 -0.1645866 0.11843553 0.0656372 -0.21726337 -0.06588629 0.13425869 -0.09680024
-0.009383023 -0.24868515 0.1440039 0.16093504 0.0073549747 -0.092383415 -0.03868568 0.08262232
0.12969017 0.07514918 0.17476028 -0.119060695 -0.10412821 -0.19131154 0.06606245 0.111540794
-0.14373875 0.09020832 -0.23969495 0.00805825 0.0021689236 0.045537293 0.0930495 -0.09155393
0.23922348 -0.012562513 -0.17208058 0.073731095 -0.22187722 -0.030909598 0.015573204 -0.08963224
0.31047454 0.31952292 -0.7436406 -0.00024271687 -0.48681447 0.43669304 0.274627 -0.20882046
-0.15976839 -0.43005508 0.46702534 0.100207016 -0.46747947 -0.045878313 0.005707288 0.517653
00000000: f474 76be 90bd 64be 7a39 0abe da62 56be
00000010: 708b cbbc 0227 1b3e 1c41 ec3d c4fc febd
00000020: 3ca1 f8bd ea72 4cbe 80aa 353b 6070 49bd
00000030: 8837 01bd 80ac 0abd c06b 153d 2090 6a3c
00000040: 82b0 023e ac79 e3bd 1c16 c03d bad8 763e
00000050: 6854 b53d bc6e d9bd acd3 673e 0e80 39be
00000060: 42e7 3cbe 6489 28be 548e f23d cc6c 863d
00000070: 4a7a 5ebe 64ef 86bd 1c7b 093e 343f c6bd
00000080: 40bb 19bc 52a7 7ebe c275 133e 28cc 243e
00000090: 0002 f13b 8433 bdbd e074 1ebd e435 a93d
000000a0: 80cd 043e d0e7 993d 5cf4 323e 18d6 f3bd
000000b0: 2c41 d5bd 2ce7 43be c04b 873d 806f e43d
000000c0: 4030 13be 24bf b83d 9872 75be c006 043c
000000d0: 8024 0e3b 5085 3a3d bc90 be3d a080 bbbd
000000e0: 00f7 743e 00d3 4dbc e435 30be 5400 973d
000000f0: c833 63be 2036 fdbc c026 7f3c 1c91 b7bd
00000100: 85f6 9e3e 8298 a33e 3b5f 3ebf d081 7eb9
00000110: bf3f f9be 3b96 df3e e99b 8c3e 08d5 55be
00000120: 539a 23be 2e30 dcbe f21d ef3e 5639 cd3d
00000130: 7859 efbe e6ea 3bbd 3404 bb3b e884 043f

linear.bias f4 [5]
0.026423067 -0.10430962 0.020816416 -0.019102663 0.010440529
00000000: 3075 d83c 48a0 d5bd 3087 aa3c 307d 9cbc
00000010: c10e 2b3c
