seeding/seeds/0_1.pt (torch, 8224 bytes, 6 tensors)

lstm.weight_ih_l0 f4 [64, 4]
0	0xbe4907d2	-0.1963189
1	0xbdafa4e0	-0.08576369
2	0x3eba3d55	0.36374918
3	0x3dcc6dfb	0.099819146
4	0xbe685c45	-0.22691448
5	0xbcb672ab	-0.022271475
6	0x3e127e9c	0.1430611
7	0x3c556559	0.013024651
8	0x3e05dbb5	0.13072093
9	0x3e8d6b37	0.2762086
10	0x3e271b27	0.16318952
11	0x3e977680	0.29582596
12	0xbdefac98	-0.117028415
13	0x3cbce589	0.02305867
14	0xbe9b9e70	-0.30394316
15	0x3ec373e4	0.38174355
16	0xbe95dc5e	-0.2926969
17	0xbd2b2d0d	-0.04179101
18	0xbc67efc2	-0.014156284
19	0x3e181a10	0.14853692
20	0xbdcc67fa	-0.099807695
21	0x3e50b7f3	0.20382671
22	0xbdd81edf	-0.10552763
23	0xbdd6d883	-0.10490515
24	0x3d99d89d	0.07512019
25	0xbd7b1513	-0.061299395
26	0xbe3055cc	-0.17220229
27	0xbeb1e77e	-0.34746927
28	0x3e314011	0.17309596
29	0xbdff3104	-0.12460521
30	0x3e1ba677	0.1520022
31	0xbe61fb85	-0.22068603
32	0xbe700023	-0.23437552
33	0x3ed029c5	0.40656868
34	0xba170860	-0.0005761441
35	0xbc243060	-0.010021299
36	0xbd552688	-0.0520387
37	0x3e967d6a	0.29392558
38	0x3d8dae5c	0.06918022
39	0xbd82477a	-0.06361289
40	0x3de57b07	0.11205106
41	0xbeb0be97	-0.3452041
42	0xbe863954	-0.26215613
43	0xbe0b70f6	-0.1361731
44	0x3e333bbb	0.17503254
45	0xbeaba3a2	-0.3352328
46	0xbd9b718d	-0.075900175
47	0xbe38abde	-0.18034312
48	0xbc5c49e9	-0.013445356
49	0x3d8353ce	0.06412469
50	0x3e56271f	0.20913361
51	0x3e88657c	0.26639926
52	0xbcafc393	-0.021455562
53	0x3d17402d	0.036926437
54	0x3e9e2a72	0.30891758
55	0x3ea11787	0.31463262
56	0xbeb0fcc6	-0.3456785
57	0x3b098aa5	0.002098718
58	0x3e19fe2c	0.15038365
59	0x3da0f346	0.07858901
60	0xbd274afb	-0.04084299
61	0x3d42c70a	0.0475531
62	0x3e113292	0.14179447
63	0x3db5f43e	0.08884476
64	0xbe04b384	-0.12959105
65	0x3d72b8a1	0.059258107
66	0x3e32aec3	0.17449479
67	0x3cd23545	0.025660167
68	0xbe05d734	-0.13070375
69	0x3d1cb74b	0.03826074
70	0x3d9af569	0.075663395
71	0x3d5d8172	0.054078527
72	0xbe72f5e1	-0.23726608
73	0x3e493776	0.19650063
74	0x3e8672e0	0.26259518
75	0xbd998d42	-0.07497646
76	0xbe110d4b	-0.14165227
77	0x3eaaae8f	0.33336303
78	0x3d3ce10a	0.04611305
79	0x3ea2c9dc	0.3179463
80	0xbe3b5fc2	-0.18298247
81	0xbce906d4	-0.028445639
82	0xbee4d4d7	-0.44693634
83	0x3dbcac18	0.09212512
84	0xbe7ad2f9	-0.24494542
85	0x3d00a9c8	0.031411916
86	0x3dcbd47a	0.09952636
87	0xbd11af31	-0.035567466
88	0xbd3ffc1d	-0.046871293
89	0xbeb7848d	-0.35843316
90	0x3d18df9e	0.037322633
91	0xbeacae04	-0.33726513
92	0x3dbc7d05	0.09203533
93	0x3de0ae82	0.10970785
94	0x3e6900ae	0.22754166
95	0xbd1422b1	-0.036165897
96	0xbdece992	-0.115679875
97	0x3e8513ef	0.2599177
98	0x3e5e91d5	0.21735318
99	0x3ed00d0e	0.4063496
100	0x3e4d23b7	0.20033155
101	0x3cfe08ec	0.031010114
102	0xbe02e8f1	-0.12784173
103	0x3ce5174e	0.027965214
104	0x3e1df292	0.15424564
105	0x3d957ce4	0.072992116
106	0x3e5743d4	0.21021968
107	0xbe104dda	-0.14092198
108	0x3e09d168	0.13458788
109	0xbe0e1e5f	-0.13878773
110	0x3d6efab8	0.058344573
111	0x3d80d112	0.06289877
112	0xbe986ffa	-0.2977293
113	0xbd8cb126	-0.06869726
114	0xbda6b8c4	-0.0814071
115	0x3e73a136	0.23791966
116	0xbe74ca9c	-0.23905414
117	0x3d99808d	0.07495222
118	0xbdbb6aff	-0.09151267
119	0x3e403384	0.18769652
120	0xbdac032d	-0.08399043
121	0xbe637472	-0.22212389
122	0xbdd5cc81	-0.10439397
123	0xbe502df7	-0.20330034
124	0xbe88f729	-0.26751068
125	0x3e77ba42	0.24192145
126	0x3e4be9b4	0.1991337
127	0x3def3d39	0.11681599
128	0xbeb85cfa	-0.36008435
129	0xbda845f4	-0.082164675
130	0xbeb2ce45	-0.34922996
131	0x3e758864	0.2397781
132	0xbe72438f	-0.23658584
133	0x3db4ef43	0.08834698
134	0xbe6f3a93	-0.23362188
135	0x3d080c4a	0.033214845
136	0x3cdd8f9a	0.027046014
137	0xbeac71c9	-0.3368056
138	0xbe1bbe07	-0.15209208
139	0xbe3ba459	-0.18324412
140	0xbe51de43	-0.20494942
141	0xbdb97f34	-0.09057465
142	0x3e936e1f	0.28794953
143	0xbda06f38	-0.07833713
144	0x3e844b14	0.2583853
145	0xbe5f2592	-0.21791676
146	0x3e2e6e9c	0.17034382
147	0xbe9af5da	-0.30265695
148	0x3e2a245a	0.1661543
149	0xbdfee8a6	-0.12446718
150	0x3e49b1bc	0.19696707
151	0xbe62ce02	-0.22148898
152	0xbe059133	-0.1304367
153	0x3e4e65ea	0.20156065
154	0x3d1dac3b	0.03849433
155	0x3d03070c	0.031989142
156	0xbd49d04d	-0.049270917
157	0x3de4778c	0.11155614
158	0xbe20aea7	-0.15691625
159	0xbe906729	-0.28203705
160	0x3e4371e6	0.19086418
161	0xbd278927	-0.040902283
162	0xbc4ead1f	-0.0126145175
163	0xbe423ca6	-0.18968448
164	0xbd47ece8	-0.048809916
165	0xbe908377	-0.282253
166	0x3ea026e5	0.31279674
167	0xbd530751	-0.05152065
168	0xbd530c0b	-0.051525157
169	0xbdf50dcb	-0.119655214
170	0xbc2330ce	-0.009960366
171	0xbd1b313d	-0.037888754
172	0xbca11484	-0.019663103
173	0x3d4548a2	0.04816497
174	0x3e4f3678	0.20235622
175	0x3ea53c6a	0.32272655
176	0x3ebccae1	0.36873534
177	0xbdb7c4b9	-0.08973069
178	0x3e3d6eab	0.18499248
179	0xbd8b456a	-0.06800349
180	0xbe8e0ecd	-0.27745667
181	0x3ddefc84	0.10888007
182	0xbec46276	-0.3835637
183	0xbda44126	-0.080202386
184	0xbd724ba6	-0.059154175
185	0x3ec4c4ef	0.38431498
186	0xbe1a463c	-0.15065855
187	0x3ebc14cc	0.36734617
188	0xbea82a8f	-0.3284497
189	0x3d45c63b	0.04828475
190	0xbdb81dbd	-0.08990047
191	0xbdee0449	-0.11621911
192	0xbe659e1f	-0.224236
193	0x3e85e735	0.2615296
194	0x3ea33cd3	0.31882343
195	0x3e43f330	0.19135737
196	0xbe236237	-0.15955435
197	0x3eb214df	0.34781548
198	0x3e8f829c	0.28029335
199	0x3e0df0f1	0.13861443
200	0xbe5df71d	-0.21676297
201	0x3e9cb408	0.30606103
202	0x3dd9d2e9	0.10635931
203	0x3e835a6a	0.25654918
204	0xbed56635	-0.4167954
205	0x3eacf5a3	0.33781156
206	0x3e4c2a47	0.19938003
207	0x3e125599	0.14290465
208	0xbe6e1769	-0.23251118
209	0x3d2c3c49	0.04204968
210	0x3dc05784	0.09391692
211	0x3eb1f6f5	0.34758726
212	0xbd86fc1d	-0.065910555
213	0x3e225a1b	0.15854685
214	0xbd7bd6da	-0.061484195
215	0x3eac6aa9	0.33675125
216	0x3e2075c4	0.15669924
217	0xbe933ccc	-0.28757322
218	0xbe15f270	-0.14643264
219	0xbd981ecf	-0.07427751
220	0x3dd8d027	0.10586577
221	0xbdb05bfa	-0.08611293
222	0xbcca58f7	-0.024700625
223	0xbeb7ace7	-0.35874102
224	0xbdf35b6e	-0.11882673
225	0x3ec40fa2	0.38293177
226	0x3ea42442	0.32058913
227	0x3ed1e213	0.40992793
228	0x3dbfcfe6	0.09365825
229	0xbe106bd1	-0.14103629
230	0xbe9fc3f8	-0.312042
231	0xbec2ae38	-0.38023543
232	0x3e8d7708	0.27629876
233	0x3d808271	0.0627488
234	0x3bde6ed6	0.006788115
235	0xbd77f525	-0.060536522
236	0x3ea44f98	0.32091975
237	0xbd95d2a9	-0.07315571
238	0x3e7097da	0.23495427
239	0xbe88a42d	-0.26687756
240	0xbe6f3155	-0.23358662
241	0xbe1d7b9a	-0.15379182
242	0x3e58c014	0.21167022
243	0x3e260f78	0.16216838
244	0xbe414cdb	-0.18876974
245	0x3ec03233	0.375383
246	0x3e31efe2	0.17376664
247	0x3d816881	0.06318761
248	0xbe26f4e7	-0.1630436
249	0xbe43036b	-0.19044273
250	0x3e2908d6	0.16507277
251	0xbe737353	-0.23774461
252	0xbd82481c	-0.0636141
253	0x3de2cc46	0.11074118
254	0x3d87713a	0.06613393
255	0x3eb993de	0.36245626

lstm.weight_hh_l0 f4 [64, 16]
0	0x3e89214b	0.26783213
1	0x3e7e7bb7	0.24851881
2	0xbe19be65	-0.15014036
3	0x3d26e568	0.040746123
4	0xbead4eca	-0.33849174
5	0x3d92abbc	0.07161662
6	0xbd93937c	-0.07205865
7	0xbdf4dd1f	-0.11956238
8	0xbe942b52	-0.289393
9	0xbddfb8da	-0.109239295
10	0xbea76584	-0.32694638
11	0xbce43532	-0.027857397
12	0xbdc966b1	-0.0983404
13	0x3e84105b	0.25793728
14	0x3d346cfb	0.044049244
15	0x3e8e0bdb	0.2774342
16	0xbc513d7f	-0.0127710095
17	0x3e7a4a0b	0.24442308
18	0x3af1244b	0.0018397657
19	0x3e3d864f	0.18508266
20	0xbe0d4132	-0.13794401
21	0xbeb0ccbb	-0.34531197
22	0x3d23e5fc	0.040014252
23	0x3d4b1823	0.049583565
24	0xbe5091e0	-0.20368147
25	0x3e8ab276	0.2708928
26	0xbd802f7e	-0.062590584
27	0x3e59bfe0	0.21264601
28	0xbd159b68	-0.03652516
29	0x3e6f5a50	0.23374295
30	0xbec29cce	-0.38010257
31	0x3e9f1a66	0.31074828
32	0xbd5b7bb1	-0.05358476
33	0x3de0c57f	0.109751694
34	0xbe340bf4	-0.17582685
35	0x3e8554db	0.26041302
36	0xbdcecfe8	-0.10098249
37	0x3e53e567	0.20692979
38	0xbdf07e04	-0.117427856
39	0x3da135ba	0.07871576
40	0x3e134ca2	0.14384702
41	0x3dd5b9b5	0.104358114
42	0xbe595ee0	-0.21227598
43	0xbe163550	-0.14668775
44	0xbe87b35d	-0.2650403
45	0x3dbed993	0.09318843
46	0xbcb31b59	-0.021863626
47	0xbe94f389	-0.29092053
48	0x3dde0cd3	0.1084229
49	0xbd66cacf	-0.056345757
50	0xbe7f340d	-0.249222
51	0xbda0015e	-0.07812761
52	0xbe0ca0d3	-0.13733225
53	0xbd25a584	-0.04044105
54	0x3e804b94	0.25057662
55	0x3da81868	0.0820778
56	0xbcb63dc5	-0.02224625
57	0x3cd9b064	0.026573367
58	0x3dea1f98	0.11431807
59	0x3d137dc4	0.03600861
60	0xbebb2d70	-0.36558104
61	0x3d94cd9f	0.072657816
62	0xbe316f10	-0.17327523
63	0x3e14a194	0.14514762
64	0x3ec273ac	0.37978876
65	0x3ec93f68	0.39306188
66	0xbc0d3b79	-0.008620136
67	0x3d87f7ff	0.066390984
68	0xbe6a9d0a	-0.22911468
69	0x3d1153f1	0.035480443
70	0x3e63bb74	0.22239476
71	0x3d5c5c5d	0.053799022
72	0xbe9f3d77	-0.3110158
73	0xbd842ce9	-0.064538784
74	0xbd054255	-0.032533962
75	0xbeace51c	-0.33768547
76	0x3d8985a7	0.06714945
77	0x3e71b9f0	0.23606086
78	0xbdefd221	-0.11710001
79	0x3e07859e	0.13234565
80	0x3c69d490	0.01427187
81	0x3e071131	0.13190152
82	0xbe974969	-0.29548195
83	0x3c785444	0.015156809
84	0xbe0ebcc1	-0.13939191
85	0xbd22ddbf	-0.039762255
86	0x3ea3421c	0.31886375
87	0xbe215bc0	-0.15757656
88	0xbd2cf7b7	-0.042228427
89	0xbd92fbb3	-0.07176914
90	0xbe5ccca9	-0.21562447
91	0x3e156bf1	0.14591958
92	0x3e112d6a	0.1417748
93	0x3e6e9e20	0.23302507
94	0xbe992c91	-0.29916814
95	0x3e9191ef	0.2843165
96	0xbe8b80fa	-0.2724684
97	0xbeb56a55	-0.35432687
98	0x3dac2b82	0.08406736
99	0xbd57da27	-0.05269828
100	0x3ef0d4a6	0.47037238
101	0x3eeb0370	0.4590106
102	0xbe6482ff	-0.22315596
103	0xbea028a8	-0.31281018
104	0x3e06ea76	0.13175377
105	0xbe3bbb79	-0.18333234
106	0x3cfc9ed2	0.03083745
107	0x3b29caba	0.0025908188
108	0xbcccc809	-0.024997728
109	0xbd90a734	-0.070631415
110	0x3eb11e9f	0.34593675
111	0xbeeff41d	-0.4686593
112	0xbec5f6f5	-0.38664976
113	0xbe9292ea	-0.28627712
114	0xbdb366b7	-0.08759826
115	0x3ca3c344	0.01999057
116	0x3d750c5b	0.059826236
117	0x3d430aa9	0.04761759
118	0x3e0fda93	0.14048223
119	0x3cd8080c	0.026371025
120	0x3e34be01	0.17650606
121	0xbe08db36	-0.13364872
122	0xbd961c68	-0.07329637
123	0xbe112f65	-0.14178236
124	0x3ec29996	0.38007802
125	0xbe07ebdb	-0.13273565
126	0x3e6857ea	0.22689787
127	0x3ca1a8c5	0.019733796
128	0x3dd86b9a	0.10567398
129	0x3d85244f	0.06501066
130	0xbdb2596f	-0.08708464
131	0xbc71a1c3	-0.01474804
132	0xbe171bd7	-0.14756714
133	0xbd3a35ab	-0.045461338
134	0x3ea63400	0.32461548
135	0x3cacc80f	0.02109149
136	0xbe2bb181	-0.16766931
137	0xbc431a56	-0.011908134
138	0x3e82e8b1	0.25568154
139	0x3e4a18bd	0.19736
140	0xbd1f30c5	-0.03886487
141	0x3ea1c060	0.31592083
142	0x3e8f803e	0.2802753
143	0xbd65a23d	-0.056062926
144	0xbed57357	-0.4168956
145	0xbd665674	-0.056234792
146	0x3e7b8b97	0.24564968
147	0xbea7c0ae	-0.3276419
148	0x3e98a8e2	0.29816347
149	0xbc9f997c	-0.019482367
150	0xbe92915a	-0.2862652
151	0xbe650caa	-0.22368112
152	0x3eb1c845	0.34723106
153	0xbda65e4c	-0.081234545
154	0x3e99b226	0.3001873
155	0xbbf43245	-0.0074522817
156	0x3ea7b156	0.32752484
157	0xbe08ce36	-0.13359913
158	0x3e48b2ac	0.19599408
159	0xbeb0940c	-0.3448795
160	0xbe2bb4c1	-0.16768171
161	0xbe5dbcb3	-0.21654014
162	0x3e993c9f	0.29929063
163	0xbd64a2cd	-0.05581932
164	0x3ea5cdfc	0.32383716
165	0x3eae4b63	0.3404189
166	0xbe30f6df	-0.17281674
167	0xbea97156	-0.3309428
168	0xbdcaa81f	-0.09895348
169	0xbea9e70e	-0.33184093
170	0x3e8a9928	0.27069974
171	0x3d70a439	0.058750365
172	0x3e8fc575	0.28080335
173	0xbe9d869d	-0.30766764
174	0x3e26d6fe	0.1629295
175	0xbe305cc7	-0.17222892
176	0xbda644d7	-0.08118599
177	0xbe6c7604	-0.23091894
178	0xbd164652	-0.036688156
179	0xbc96d20a	-0.018410701
180	0x3df778c2	0.120835796
181	0x3e998b12	0.29988915
182	0x3d60789f	0.054802533
183	0xbdb61b1a	-0.08891888
184	0x3dfc99bf	0.12334012
185	0x3cf1c425	0.029512474
186	0xbe0527b0	-0.13003421
187	0xbde89d71	-0.113581546
188	0x3dc8d959	0.09807081
189	0xbe366810	-0.17813134
190	0xbe13c6b9	-0.14431275
191	0xbe0362e3	-0.12830691
192	0xba4cf84b	-0.0007818981
193	0x3ec1cd4a	0.37851936
194	0x3db8a7f3	0.09016409
195	0xbcd860af	-0.02641329
196	0xbdc4eb92	-0.09615244
197	0x3da5d1c3	0.080966495
198	0xbd043971	-0.032281343
199	0x3e302511	0.1720164
200	0xbdea1ba7	-0.114310555
201	0x3d128242	0.035768755
202	0x3d366c51	0.044536892
203	0xbe34f8b3	-0.17672996
204	0x3dab20cf	0.08355867
205	0x3d7406c0	0.05957675
206	0xbe8b42bd	-0.27199355
207	0x3eac9769	0.33709267
208	0x3e55fe50	0.20897794
209	0x3e94f94f	0.29096457
210	0xbeb1857e	-0.3467216
211	0xbde12007	-0.10992437
212	0xbd626f2b	-0.0552818
213	0xbdd57578	-0.10422796
214	0x3e5d47f2	0.21609476
215	0x3e2417d9	0.16024722
216	0xbe71f1ac	-0.23627347
217	0xbdbedb66	-0.09319191
218	0xbeb06b6a	-0.3445695
219	0xbd4899e9	-0.048974905
220	0x3d32a9e9	0.04361907
221	0xbd167563	-0.036733042
222	0xbe30a513	-0.17250471
223	0xbd37a80b	-0.044837993
224	0xbd96c33e	-0.07361458
225	0x3ea62435	0.324495
226	0xbd7a61b2	-0.061128326
227	0xbdec4a55	-0.11537615
228	0xbe4fa9a6	-0.2027956
229	0xbd95b2e5	-0.07309512
230	0xbd93b020	-0.072113276
231	0xbdddb69c	-0.108258456
232	0xbd7b3b14	-0.06133564
233	0x3e3a3d31	0.18187405
234	0xbe9f8117	-0.31153175
235	0xbdea5420	-0.11441827
236	0x3a9c9894	0.0011947327
237	0x3e7be3d9	0.24598636
238	0x3d4eeeab	0.05052058
239	0x3d79dd34	0.06100197
240	0xbe0e195d	-0.13876863
241	0x3d6f82b9	0.058474276
242	0x3e0950e8	0.1340977
243	0x3e847330	0.2586913
244	0xbe4f4929	-0.20242752
245	0xbe1764ef	-0.14784597
246	0x3c1b2dff	0.009471416
247	0x3de38008	0.111084044
248	0x3df91839	0.12162823
249	0x3e815589	0.2526057
250	0xbe879030	-0.26477194
251	0xbe002ae0	-0.12516356
252	0x3c3a085b	0.011354531
253	0xbe0a5e87	-0.13512622
254	0xbe8dd966	-0.27704924
255	0x3e5c32bc	0.21503729

lstm.bias_ih_l0 f4 [64]
0	0x3e06ad54	0.13152057
1	0x3ea5a5d2	0.32353073
2	0x3d65120d	0.055925418
3	0xbd8c3ebe	-0.068479046
4	0x3ea28234	0.31739962
5	0x3d7fa6d2	0.06241495
6	0xbde25e25	-0.11053113
7	0xbeab2e92	-0.33433968
8	0x3e8cfb82	0.27535635
9	0x3d1d9403	0.038471233
10	0x3db688ed	0.08912835
11	0xba35e9e5	-0.0006939455
12	0x3e0d98af	0.13827775
13	0xbdac553f	-0.08414697
14	0x3e6cedd5	0.231376
15	0x3e4d98dd	0.20077844
16	0x3ec458d8	0.38349032
17	0x3e2cbb5c	0.16868347
18	0x3cf86566	0.030321788
19	0xbd1f4503	-0.038884174
20	0xbd73d139	-0.059525702
21	0x3e0f8aa6	0.14017734
22	0xbd23f9ae	-0.040033035
23	0xbca5aaa1	-0.020222964
24	0x3e167891	0.1469443
25	0xbd512399	-0.05105934
26	0xbe9311ae	-0.28724426
27	0x3ea3a042	0.31958205
28	0x3d872631	0.06599081
29	0x3cd8743d	0.026422614
30	0x3df5383e	0.11973618
31	0x3dc7fa5b	0.097645484
32	0x3e63c6df	0.22243832
33	0x3e6aa873	0.22915821
34	0x3e019cb5	0.12657435
35	0x3d99713c	0.07492301
36	0x3dbf31fe	0.09335707
37	0x3df7d891	0.12101854
38	0xbe6c9b7d	-0.23106189
39	0xbd39e360	-0.045382857
40	0x3de48ae8	0.11159307
41	0x3cadb91c	0.021206431
42	0x3eca9cfe	0.395729
43	0x3dc99ac7	0.098439746
44	0x3dbfb641	0.09360934
45	0x3e9f977b	0.31170258
46	0x3d5e501a	0.05427561
47	0xbdeb48b0	-0.114884734
48	0x3e8c41ef	0.27394053
49	0x3e662d95	0.22478326
50	0x3ec2b830	0.3803115
51	0x3e1cef22	0.15325597
52	0xbccae42f	-0.02476701
53	0x3e9ca378	0.30593467
54	0xbe85e363	-0.26150045
55	0xbdf8e13a	-0.121523336
56	0x3edb49f5	0.42829862
57	0xbe942fd6	-0.28942746
58	0x3d68afab	0.056808155
59	0xbe7303b4	-0.23731881
60	0x3edf0bfd	0.43563834
61	0x3e485909	0.19565214
62	0xbd9eade0	-0.07748008
63	0x3eff0ce5	0.49814525

lstm.bias_hh_l0 f4 [64]
0	0xbd8c870d	-0.068616964
1	0x3db1f322	0.08688952
2	0x3e5c5470	0.21516585
3	0x3e874a88	0.2642405
4	0x3e6ef3f3	0.23335247
5	0x3dec4046	0.11535697
6	0xbe559d5b	-0.20860808
7	0xbe9f6aec	-0.31136262
8	0x3e06ac57	0.1315168
9	0xbe41f3ce	-0.1894066
10	0x3da46af5	0.08028213
11	0xbe931c04	-0.28732312
12	0x3e02d98f	0.12778305
13	0x3ea0b8b4	0.31390917
14	0xbb94a0df	-0.004535779
15	0xbdbd1c68	-0.09233934
16	0x3e73ff40	0.23827839
17	0x3ec230bd	0.3792781
18	0x3e49f999	0.1972412
19	0x3ebf2923	0.37336072
20	0x3e309688	0.17244923
21	0x3dc22011	0.094787724
22	0xbe844021	-0.25830176
23	0xbe96c51e	-0.29447263
24	0x3d84a4f4	0.06476775
25	0x3d52775f	0.051383372
26	0xbe81d149	-0.25354984
27	0x3de2cf13	0.110746525
28	0x3e977a9d	0.29585734
29	0xbda63bd0	-0.08116877
30	0xbe4d5207	-0.20050822
31	0xbd0db654	-0.03459771
32	0x3dfec13f	0.124392025
33	0x3d38bfae	0.045104675
34	0xbe841342	-0.25795943
35	0x3e03bc2f	0.12864755
36	0x3d2aede3	0.041730773
37	0x3db0d61c	0.08634588
38	0xbe8a00cc	-0.26953733
39	0xbe9b8580	-0.3037529
40	0xbb8364c8	-0.004009817
41	0xbdac8d1d	-0.08425353
42	0x3df958ca	0.12175138
43	0x3e7f808b	0.24951379
44	0xbc9c8cae	-0.01911005
45	0xbe01e683	-0.1268559
46	0x3dbbcdf4	0.09170142
47	0x3e32de29	0.1746756
48	0x3e36ab9b	0.178389
49	0x3e7e9279	0.24860562
50	0x3e0a68cd	0.13516541
51	0x3e835978	0.25654197
52	0x3e3886c2	0.18020156
53	0x3dd38528	0.10328132
54	0x3c5ff4dc	0.013669219
55	0xbe9e4d64	-0.3091842
56	0x3e8949ab	0.26814017
57	0xbe3870c8	-0.18011773
58	0xbe855ce7	-0.2604744
59	0x3d86a3e2	0.06574227
60	0x3e4a649f	0.19764946
61	0x3e2d60e1	0.16931488
62	0xbd45548c	-0.048176333
63	0x3ed1f8e9	0.41010216

linear.weight f4 [5, 16]
0	0x3e6f1d57	0.23351036
1	0x3ef2cc7c	0.47421634
2	0xbee37020	-0.44421482
3	0x3dac37b9	0.08409066
4	0xbe934a8b	-0.2876781
5	0xbf0da9ca	-0.553372
6	0xbb0c18fa	-0.0021377192
7	0x3d3462a4	0.044039384
8	0xbf4c83e8	-0.7988877
9	0x3e8af073	0.27136573
10	0xbdce8bcd	-0.10085259
11	0x3cffbd42	0.031218175
12	0xbf0cf6c9	-0.55064064
13	0x3e80c946	0.2515356
14	0x3dc2dd66	0.09514885
15	0x3e83f0e6	0.25769728
16	0x3ef70f9f	0.48254105
17	0x3e3f9ffb	0.18713371
18	0xbe6be041	-0.23034765
19	0x3f0f4e0f	0.5597848
20	0xbe6a925b	-0.22907393
21	0xbe7e3b04	-0.248272
22	0x3e8c4f93	0.2740446
23	0x3e0fab50	0.14030194
24	0xbf56f594	-0.8396847
25	0x3e99d3b9	0.30044344
26	0xbeafec43	-0.3435994
27	0xbe943cfc	-0.28952777
28	0xbdf95a13	-0.121753834
29	0x3ebd6b00	0.36995697
30	0x3d27e6d0	0.040991604
31	0x3eee8dc9	0.46592548
32	0x3e4cf1ad	0.20014067
33	0x3ee67a85	0.4501535
34	0xbf193a55	-0.5985463
35	0x3e832f83	0.25622186
36	0xbebac11e	-0.36475462
37	0xbec8af22	-0.39196116
38	0x3e330557	0.17482506
39	0x3e9ab88c	0.30218923
40	0xbf42eeef	-0.76145834
41	0x3e089329	0.13337387
42	0xbe6e2b83	-0.23258786
43	0xbe7ad43a	-0.2449502
44	0xbe3ee265	-0.1864105
45	0x3e9ef0e7	0.3104317
46	0xbe444ef0	-0.19170737
47	0x3f071717	0.5276961
48	0x3e3128fc	0.1730079
49	0x3e715394	0.23567039
50	0xbe906760	-0.2820387
51	0x3eff1fd5	0.49828973
52	0xbe671fa0	-0.22570658
53	0xbeca67da	-0.39532357
54	0x3bfa5a1a	0.0076401355
55	0x3dd0c2af	0.10193383
56	0xbf33ae4e	-0.7018784
57	0x3ec2782a	0.37982303
58	0x3cfe5933	0.031048393
59	0xbeaba063	-0.33520803
60	0xbef89ca3	-0.48557004
61	0x3ed0f383	0.40810785
62	0xbd8ad55c	-0.06778976
63	0x3f2542ab	0.6455485
64	0x3eac822e	0.3369307
65	0x3f115132	0.5676452
66	0xbe968004	-0.29394543
67	0x3e8da52a	0.27665073
68	0xbeab6bf7	-0.33480808
69	0xbf264f7b	-0.6496503
70	0xbd84c5d2	-0.06483044
71	0xbd8ee6d9	-0.069776244
72	0xbf19f9d0	-0.6014681
73	0xbd5dbe15	-0.054136354
74	0x3df0abbb	0.11751505
75	0x3d1b1e41	0.03787065
76	0xbed87816	-0.42279118
77	0x3e999466	0.29996032
78	0x3df5f4fe	0.12009619
79	0x3f028e2b	0.5099818

linear.bias f4 [5]
0	0x3e817895	0.2528731
1	0x3eb5adbf	0.3548412
2	0x3ee0a0fd	0.43872824
3	0x3e43dbea	0.1912686
4	0x3e041ed5	0.12902386
