seeding/seeds/fourpointtwo/0_0.pt (torch, 8224 bytes, 6 tensors)

lstm.weight_ih_l0 f4 [64, 4]
000000 e4 52 0a be fa 83 8e be 8e da 83 be db e4 9a be
       -0.13508183 -0.27835065 -0.25752681 -0.30252728
000010 25 35 7b bd f9 35 5f 3d 12 5c 66 3e ad 0d 9b 3e
       -0.06132998 0.05449483 0.2249606 0.3028387
000020 03 4c b5 bd 1d c1 47 3e 1d bf 20 3e 7a b2 5d 3d
       -0.08852389 0.1950726 0.15697904 0.054125287
000030 93 86 88 3d 20 d9 19 3c ab e3 98 3d c7 83 26 3e
       0.06666293 0.009390146 0.07465299 0.16261207
000040 92 6c bc 3d 2a c6 8a 3d 94 97 36 be 53 bd ca 3c
       0.09200396 0.06776078 -0.1783126 0.02474848
000050 b8 3c 38 3e 54 f8 47 3d 19 cc 05 3e eb 8f 67 be
       0.17991912 0.04882081 0.13066138 -0.22613494
000060 0c f7 db be 11 7f 56 bd 1d bf bf bc b6 74 22 ba
       -0.4296192 -0.052367274 -0.02340656 -0.0006197201
000070 27 d1 a8 bd 10 60 4f 3e 1e 03 7b 3d 3c 24 e0 3b
       -0.08243018 0.20251489 0.06128227 0.006840257
000080 ac 63 ff 3d 5d 02 77 3c ca 65 12 be 7b 19 1f be
       0.12470183 0.015076247 -0.14296642 -0.15537064
000090 ae f2 1a bd a3 27 69 3e d9 be 59 3e 89 4f 53 3e
       -0.037829094 0.22769026 0.21264209 0.20635809
0000a0 03 91 a3 3e 5f 3a 6c 3e 21 96 5c bd 85 38 2c 3e
       0.31946573 0.23069142 -0.05385411 0.16818435
0000b0 01 17 0d 3e 50 6c e7 bc 9f dd a2 3c 50 a3 ac 3e
       0.13778307 -0.02824989 0.019881068 0.33718348
0000c0 88 0b 31 bd 3f 0f 46 3e 52 10 d0 3d dc ff 23 be
       -0.043223888 0.19341753 0.10159363 -0.16015571
0000d0 95 b4 b7 bd 85 1d 29 3e 38 61 07 3e 35 65 ac 3e
       -0.0896999 0.16515167 0.1322068 0.33670965
0000e0 03 d1 da 3d 9f c0 4f bc 58 cd cd bd 6d 3c 2e 3d
       0.10684397 -0.012680202 -0.10048932 0.042538095
0000f0 79 85 12 3e 52 f7 94 3e 96 22 1f 3e 43 33 4d bd
       0.14308728 0.2909494 0.15540537 -0.050097715
000100 10 f6 3b be d2 ac 0d be 8f c8 6b be ae 2c c2 bd
       -0.18355584 -0.13835457 -0.23025726 -0.09481178
000110 94 35 29 be e8 62 10 3d 0c 87 b3 3e 98 c1 a0 3d
       -0.16524345 0.035250574 0.3506397 0.07849425
000120 ba f3 da bd 11 5e d3 3d d3 72 af bc 15 1c 6f 3e
       -0.106910184 0.10320676 -0.021417057 0.23350556
000130 61 43 83 bd b6 60 1a 3e f9 fc b9 3d 5d 77 95 3e
       -0.06409336 0.15075955 0.09081454 0.2919263
000140 fd ae 11 3c 72 55 8b be 04 c5 a6 3d 74 e9 c4 3d
       0.008891818 -0.27213627 0.081430465 0.0961484
000150 de 5c a7 ba fa 30 3c 3e e5 19 36 3d 53 be c5 be
       -0.0012768765 0.18378058 0.04445829 -0.38621768
000160 56 02 a2 bd 51 43 73 bd 3f 15 bb be c1 0f 4c 3e
       -0.07910602 -0.05939037 -0.36539647 0.19927885
000170 d1 9d 31 be aa 35 53 3d 9c a8 17 3d 3e 09 46 3e
       -0.17345358 0.05156485 0.037026033 0.19339463
000180 b2 4d 19 3c 7f d3 5d 3e 28 05 27 3c 99 19 f8 3b
       0.009356903 0.2166271 0.0101941 0.007571411
000190 63 1c eb bd e7 9a ed 3c c6 e2 7b 3e 70 5e a8 3d
       -0.11480024 0.029004527 0.24598226 0.082211375
0001a0 d4 0f 52 bd 33 9d 78 3d ad 7e 66 3e 4a 80 bd 3e
       -0.051284626 0.06069679 0.2250926 0.3701194
0001b0 14 54 bd bd b4 8f ab 3d 85 72 6c bd f3 da d8 3e
       -0.09244552 0.083770186 -0.0577264 0.42354545
0001c0 35 a6 9c 3e 4f 4f 77 3e 25 49 6f 3d 15 5c cd bd
       0.30595556 0.24151348 0.058419365 -0.10027329
0001d0 7b 6f c6 bd 18 1c 33 3e ee 7e d6 3d 5a a2 89 3b
       -0.09689232 0.17491186 0.10473429 0.004200262
0001e0 80 d9 9c bd 08 5f b4 3e ae b8 84 3d be b9 af 3e
       -0.07658672 0.35228753 0.06480537 0.34321398
0001f0 a7 d2 5b be ee 0b 6a 3e e6 e6 b7 3e ce 8b 2f 3e
       -0.21467076 0.22856113 0.3591835 0.17143175
000200 8c fa 57 be 4d 57 1c bc 8b 63 dc 3d 51 97 32 3e
       -0.2109167 -0.0095422985 0.10761174 0.17440535
000210 dc 0c 18 be be b7 62 3e 0c 64 0d 3e 3d 96 8b bd
       -0.14848655 0.22140405 0.13807696 -0.06815765
000220 ab df 5b be a6 ae 8d 3e 87 b0 95 3e 6b 3c 29 bd
       -0.21472041 0.2767231 0.29236242 -0.041317385
000230 4a 80 35 3d 94 b0 42 be 89 f9 59 3c a1 d2 96 bc
       0.0443118 -0.19012672 0.013304123 -0.018410983
000240 e3 83 bf 3d ed 57 51 3c f6 bb 85 bd d1 27 b2 3e
       0.09351327 0.012777311 -0.06529991 0.34796003
000250 94 7f 4e 3c f2 c7 20 3e 42 a6 a3 be 82 b9 e2 bd
       0.012603659 0.15701273 -0.31962782 -0.11070539
000260 7f 2f 41 3e 5e d6 cf 3c 75 c0 a6 3e f7 23 c7 3d
       0.18865775 0.025370773 0.32568708 0.097236566
000270 5f a0 29 bd 2a 88 71 3d 30 be 40 bc 5d dc a4 3e
       -0.041412707 0.058967747 -0.011764094 0.32199374
000280 a7 50 06 3d 5d 92 91 be a7 d7 32 3c 1f 5a 94 be
       0.03279176 -0.2843198 0.010915673 -0.28975007
000290 3d 2e 92 3e 36 75 6f be c8 81 9c be 70 73 de bd
       0.28550902 -0.23384556 -0.30567765 -0.10861862
0002a0 05 bc ba bd 6d 5d 07 be 08 65 20 be 78 b9 7d be
       -0.09117893 -0.13219233 -0.1566354 -0.24777782
0002b0 2f ae a2 be 2e 80 a5 3e 91 41 8b bd 4c 43 a3 3e
       -0.31773517 0.32324356 -0.06799615 0.3188728
0002c0 b1 c3 4d bc 54 03 b4 3d 5d 6a a1 3e 8d fa c3 3e
       -0.0125588635 0.08789697 0.3152646 0.38277093
0002d0 f4 4c 81 b9 c6 73 84 be a5 35 6d be 80 d5 9b be
       -0.00024662132 -0.25869578 -0.23164995 -0.30436325
0002e0 de ac 0e 3c d1 cb 5d be 9f f6 81 be 48 33 d0 bd
       0.008708207 -0.21659781 -0.2538347 -0.10166031
0002f0 a9 c6 a5 3e 12 17 53 3d 13 b0 02 be 18 a6 06 3e
       0.32378128 0.051535673 -0.1276248 0.13149297
000300 78 6f 09 3e a3 ab 1c 3c dd ff e4 3d d8 bb 8e be
       0.13421428 0.009562406 0.111816145 -0.27877688
000310 d9 40 16 be b8 ea 01 3e ff 89 d6 3c b9 33 de 3d
       -0.14673175 0.12687194 0.026188849 0.10849709
000320 4c 35 58 bd 9c 28 34 3e 43 68 c0 3d da 4c ce 3e
       -0.052785203 0.17593616 0.09394886 0.40293008
000330 e5 f6 7a 3c c9 b2 ae 3d 08 fb 14 3e 93 85 b0 3e
       0.015317653 0.08530194 0.14548886 0.3447691
000340 50 5b 81 bc 5b 1b 46 3e cf ec 14 bd b2 de 0a 3d
       -0.015790612 0.19346373 -0.03635865 0.033903785
000350 29 a5 29 3e ab 93 8a be 30 02 34 3b 61 3e 9b 3d
       0.1656691 -0.27065787 0.0027467124 0.07580257
000360 fb 24 3b be d7 dc d8 bd 66 cd d0 3d b4 4a 7d 3e
       -0.18275826 -0.10588997 0.10195427 0.24735528
000370 6c 7a f2 bd bf 28 a7 3d 87 22 ec 3d 73 c6 28 3e
       -0.11839756 0.081620686 0.11530023 0.16481952
000380 59 16 66 3e 65 72 eb 3b 5c 8f 0c 3e 41 13 d5 3d
       0.22469462 0.0071852678 0.13726562 0.10404063
000390 f2 7f 15 be 96 ec 0f 3e 14 ef d5 bc 95 fd 00 3e
       -0.14599589 0.14055094 -0.026114978 0.12596734
0003a0 dd d7 54 bd d8 ed d2 3e d0 c2 0f 3e da 0d e5 3e
       -0.051963676 0.41197085 0.14039159 0.4473713
0003b0 ea 5d 11 be c5 fa cf 3e c3 d2 48 3d 10 34 3d 3e
       -0.14195982 0.4062101 0.049029123 0.18476892
0003c0 f4 c9 8e bd 49 4c 42 3e b3 09 56 3e c9 c3 1e 3e
       -0.06972113 0.18974413 0.20902137 0.15504374
0003d0 57 b2 06 bd 38 59 ac 3e 5c a5 77 3e 33 c9 41 3e
       -0.032884922 0.33661819 0.24184173 0.18924408
0003e0 c0 94 86 3e 58 0b b5 3c c0 d2 b6 3e a4 55 b2 bd
       0.26285362 0.022100136 0.35707664 -0.08707741
0003f0 00 66 ff 3d 59 15 06 3e 61 3f 74 3e 1d 13 0d be
       0.12470627 0.13094081 0.23852302 -0.13776822

lstm.weight_hh_l0 f4 [64, 16]
000000 d3 cf 82 bd 26 15 0e 3e 3e 8f 05 3d 87 bb 79 bd
       -0.063872956 0.13875255 0.03260731 -0.060969856
000010 61 96 86 3e c6 ff 36 bd a4 70 6b 3e 7b 7f 3a 3d
       0.26286605 -0.04467752 0.22992188 0.04553173
000020 d2 31 ae 3d aa 6c bc 3d 97 29 04 3e 2b 9f 39 be
       0.08505596 0.092004135 0.1290649 -0.18127124
000030 8e fa c7 bd 7d dc 33 3d fa 2c 80 3e 49 1b 35 3e
       -0.097645864 0.043911446 0.25034314 0.1768619
000040 bc f0 b1 bd 2a 22 24 bd f4 d1 95 3d b2 9b c0 3d
       -0.086884946 -0.040071644 0.07315436 0.094046965
000050 a8 7a e0 bd 13 2c a8 3e 21 dc 23 be 3a 30 91 3e
       -0.10960895 0.32846126 -0.16001941 0.28357106
000060 cf 9b c6 be b2 0d ab be 21 c6 a5 bd 46 62 d3 3e
       -0.38790748 -0.33408886 -0.08094431 0.41285914
000070 c8 9b 44 be 83 7b 18 be 59 14 cf be 14 22 8a bd
       -0.19200051 -0.14890866 -0.40445212 -0.06744781
000080 72 04 74 3e af fe e1 3e 90 c9 c6 3e 0e 89 92 be
       0.23829821 0.4413962 0.38825655 -0.2862019
000090 7d 69 c0 3e e4 bc 64 3c c3 3d 3c 3d ea 79 d8 3d
       0.3758048 0.013961051 0.045957338 0.10570128
0000a0 c0 eb 90 bd 14 e1 73 3c 6d 82 22 3b cb 5d 0a 3f
       -0.07076216 0.014885206 0.0024796978 0.54049367
0000b0 5c 5b bf 3e e6 22 01 bd 38 be 89 be f8 f9 c2 3d
       0.3737439 -0.031527422 -0.26902938 0.09520334
0000c0 bd 4e 48 3e db 93 21 3e 8d 90 c0 3d ea d9 b1 bd
       0.19561286 0.15779059 0.09402571 -0.08684142
0000d0 8b 3d 94 3e cc 80 1c 3e 43 78 60 3e e7 d8 70 bd
       0.28953204 0.15283507 0.21920876 -0.058800604
0000e0 bd d0 04 be ef 47 cc bc 42 74 39 3d 19 55 be 3d
       -0.12970252 -0.024936644 0.045276888 0.09293575
0000f0 15 15 20 bd 23 f8 85 bd cb 60 94 be ec ce 00 bc
       -0.039082605 -0.06541469 -0.28980097 -0.007861834
000100 c1 44 6b bd 1d 89 f2 bd 6f ba b3 3d 59 58 96 bd
       -0.057438616 -0.118425585 0.08775794 -0.0734107
000110 e4 a6 c0 3e 80 39 3b 3c c1 f1 04 be f7 80 37 3e
       0.37627327 0.011427283 -0.12982847 0.1792029
000120 4c 5d dd be e8 d5 84 be da 46 b8 be ca b6 81 3e
       -0.43235242 -0.25944448 -0.35991555 0.2533477
000130 d5 3d c7 3e da 4e ae bd 96 05 97 be 09 8c 8d 3e
       0.38914362 -0.085111335 -0.2949645 0.276459
000140 b0 9d 49 3e 49 96 81 3d a8 a2 57 3d 42 ce bd 3d
       0.1968906 0.06327493 0.052645355 0.09267856
000150 ae 77 01 bd 73 09 96 be c6 58 8a 3d b2 69 97 3d
       -0.031608276 -0.29304084 0.067552134 0.07393207
000160 8e 22 01 3d 01 1f 8a bc 07 50 8b 3e 18 4e 0f 3e
       0.031527095 -0.016860487 0.27209494 0.13994634
000170 31 52 58 be 8d 34 7d 3e 4f f8 53 3e fe 20 40 3e
       -0.21125104 0.24727078 0.20700191 0.18762586
000180 b2 4a ee bc c2 5d 35 be 48 14 c3 be 68 3f 9f 3c
       -0.029088352 -0.17711547 -0.3810141 0.019439414
000190 dc 43 08 bf d9 fd 88 3e 17 d7 85 be 45 84 95 be
       -0.53228545 0.2675617 -0.26140663 -0.29202476
0001a0 83 33 aa 3e 8d ea 4a 3f 44 e8 e2 bd e5 c5 b1 be
       0.33242425 0.79264146 -0.110794574 -0.34721294
0001b0 02 6f 38 be fe 70 a7 bc 4f 00 31 3d 74 50 04 3e
       -0.18011096 -0.020439621 0.043213185 0.12921315
0001c0 4b 85 1f be b7 da c9 3d ae 96 84 3d ae 89 29 be
       -0.15578191 0.0985617 0.06474052 -0.16556427
0001d0 90 62 13 3e 10 f8 d1 3d 32 0f 64 be a9 28 ce 3e
       0.14393067 0.10252392 -0.22271422 0.40265396
0001e0 fc 7b ac be c4 d6 1b bb 2e 9c 12 3e 5c a4 20 3e
       -0.33688343 -0.0023779133 0.1431739 0.15687698
0001f0 d5 9c 3f be 88 47 e0 3d 50 c0 07 be 3d f5 b1 3d
       -0.1871217 0.109511435 -0.13256955 0.086893536
000200 c8 d9 3d be da 51 43 bc d2 6c 97 3d cd a1 28 be
       -0.18540108 -0.01192137 0.07393803 -0.16467972
000210 24 b2 53 3d 77 f7 d4 bd 58 ca 3d 3d 3c 24 af be
       0.05168356 -0.10398763 0.04633555 -0.34207332
000220 75 9e e2 bd b1 43 79 be d2 0e 98 be 6a 0d ac 3d
       -0.110653795 -0.24342228 -0.29698807 0.08400996
000230 d5 18 91 3d 81 95 a0 3d 7b 7e 3d be 71 69 84 3e
       0.070848145 0.078410156 -0.1850528 0.25861695
000240 64 19 40 bd c7 18 3d bd b7 d4 9f 3e bf 02 92 be
       -0.046899214 -0.046166208 0.31216976 -0.2851772
000250 27 e0 09 3e 58 bb ec bd 29 89 4a be 5e 15 b9 3e
       0.13464414 -0.115591705 -0.19778885 0.36149114
000260 9b aa bf 3d 72 f7 44 be 30 43 14 be 6f 82 93 bd
       0.09358712 -0.19235018 -0.14478755 -0.072026126
000270 13 33 e0 bd 54 0d a5 be fa f9 14 be 92 31 0a 3e
       -0.10947242 -0.3223673 -0.14548483 0.13495472
000280 09 17 e3 bd cf 90 81 3d 60 2a 57 3d 0a 6d 1c be
       -0.11088378 0.06326448 0.052530646 -0.1527597
000290 fc 51 86 bc f2 c3 fe 3d b1 65 a7 bd 3f 45 29 bb
       -0.016396515 0.12439717 -0.08173693 -0.0025828627
0002a0 16 c1 a6 3c 44 99 84 bd 64 d2 94 be 3c 47 6e 3d
       0.020355742 -0.064745456 -0.29066765 0.058173403
0002b0 84 37 b0 3e aa 32 5e be 26 94 94 be 3c d4 f3 3d
       0.34417355 -0.21699014 -0.29019278 0.11905715
0002c0 07 14 1b 3d 86 85 99 3d ba 0f 0b 3e 75 87 1d bd
       0.037860896 0.07496171 0.13580218 -0.03845926
0002d0 ba 9d 93 3d c1 c4 bd bd dc 67 0f 3e ea 2d 2c be
       0.07207818 -0.092660435 0.14004463 -0.1681439
0002e0 74 dd 45 be f1 25 ec bd be 67 03 be 6d 24 dd 3e
       -0.19322759 -0.11530674 -0.12832543 0.43191853
0002f0 3b 80 38 bd 63 db 41 be 4d 60 e5 be a4 85 f7 bd
       -0.045044165 -0.18931346 -0.44800034 -0.12086037
000300 5a c5 4e be 50 dc 49 3e 24 d4 4c 3e 50 42 8e bd
       -0.20192471 0.19712949 0.200028 -0.06946242
000310 3b e4 82 3e cf c0 23 be 80 2f 59 3e 77 63 0f be
       0.2556475 -0.1599152 0.21209526 -0.14002787
000320 da e6 84 be b0 f4 d9 bd 9c da b1 be 48 63 91 3e
       -0.25957376 -0.106423736 -0.34737098 0.28396058
000330 76 40 ac 3e 01 65 4d be c9 c4 b3 be da 14 54 3d
       0.3364293 -0.20058061 -0.35111073 0.051777698
000340 71 a3 8e 3e c2 67 5c 3e 90 0d 68 bd e1 c1 dd bd
       0.2785907 0.21523955 -0.05665356 -0.10827995
000350 58 dc 94 3c c9 45 47 3c 62 91 36 bd 83 eb 02 3e
       0.018171474 0.012162634 -0.04457224 0.12785153
000360 ee 59 7f be 03 b9 94 3c c5 7a 1a 3c 16 fb d1 3d
       -0.24936649 0.018154627 0.009428685 0.10252969
000370 b5 e0 a8 3e 86 a7 e6 3d 1a 35 b9 bd f1 b8 0e 3e
       0.32983938 0.11262421 -0.090433314 0.13937737
000380 6c 7b 01 3e a5 78 01 3e cb ce 54 3e 0b 16 7b be
       0.12644738 0.12643678 0.2078201 -0.24520127
000390 9a 77 9d 3c d4 aa 36 be ba e4 65 3e 3b e7 43 be
       0.01922207 -0.17838603 0.22450534 -0.19131176
0003a0 69 e9 22 be a6 be 71 3b 84 0b b3 bd 76 f7 20 3e
       -0.15909351 0.0036887317 -0.08742431 0.15719399
0003b0 76 7c 67 3d d3 11 71 be 08 72 68 be ce 37 fd bd
       0.05651518 -0.23541956 -0.2269975 -0.123641595
0003c0 a7 30 0f 3e 0f 0a ad be 9a 37 48 3c 72 f6 11 3e
       0.13983403 -0.33796737 0.012220288 0.14254168
0003d0 26 f6 ed bd 6b fc 31 3d 10 cc 07 be a9 fe 7a 3e
       -0.11619215 0.043453615 -0.13261437 0.24511208
0003e0 b1 56 3c 3e 0e 48 a6 3e 13 46 01 be b5 f9 9b be
       0.18392445 0.32476848 -0.12624387 -0.3046395
0003f0 00 11 5b 3e df 4d 49 be e9 dc ec 3d 2b 13 33 be
       0.21393204 -0.19658612 0.11565573 -0.17487781

lstm.bias_ih_l0 f4 [64]
000000 41 9e ec 3d a6 09 ab 3e 26 a3 ae 3e 83 ff 89 3e
       0.11553622 0.334058 0.34108847 0.26952752
000010 43 3a b0 3d 5a c7 58 3d b4 4b 9c bd 03 93 c1 3d
       0.086048625 0.05292449 -0.07631627 0.094518684
000020 22 4d 8f 3e fb e4 1d 3e 3c dd 23 3e 04 9d 40 3d
       0.27988535 0.1541938 0.16002363 0.04702474
000030 75 3f 88 bc b8 3c d3 bc 1b 37 60 3d 16 8f b9 3d
       -0.016631821 -0.025785789 0.054740053 0.090604946
000040 50 51 07 be 76 6d 47 bd 15 2f 7d 3e 50 b3 bb bd
       -0.13214612 -0.048688374 0.24724992 -0.091650605
000050 40 b6 a7 be 30 13 18 be 4b 4d b0 3e 8d c4 56 3e
       -0.32756233 -0.1485107 0.3443397 0.20973416
000060 f6 31 60 3e 2b c9 9b bd d3 7d ae 3e 3c 7a ae 3e
       0.21894059 -0.07606729 0.3408037 0.34077632
000070 30 4f 11 be b7 f0 c0 3d a2 ed 77 3e 28 d0 57 3e
       -0.14190364 0.09420913 0.24211743 0.21075499
000080 81 8f 8f be f6 7e 9a 3e d5 bb 14 3e 28 c8 a5 be
       -0.28039172 0.30174989 0.14524777 -0.3237927
000090 e0 8e 79 bd b4 03 a8 be df 4f 6f 3e c9 83 2f 3e
       -0.06092727 -0.32815325 0.23370312 0.17140116
0000a0 bf 9f eb bd e8 dc fc bd ec c7 ac 3c 05 f2 d3 3e
       -0.115050785 -0.12346822 0.021091424 0.41395584
0000b0 92 a0 8a 3e d4 c2 af be 10 7e 00 bc 7e f4 97 3e
       0.2707563 -0.3432833 -0.007842556 0.2967872
0000c0 8d ec 25 3d fd 01 79 3e 16 ff b1 3e 29 eb 26 3e
       0.040508796 0.24317165 0.34764928 0.16300644
0000d0 1d 66 1c be bc be 64 be fd 58 62 3e 84 76 2e 3e
       -0.15273328 -0.22338384 0.22104259 0.17037398
0000e0 6b 4e 03 3c 88 3c 0c 3e 67 99 68 3d dd a9 96 3e
       0.008014302 0.13694966 0.05678692 0.2942647
0000f0 01 b3 8a 3e 67 1f 24 3d df ea 05 3e 88 90 e1 3c
       0.27089694 0.04006901 0.13077877 0.027534738

lstm.bias_hh_l0 f4 [64]
000000 66 27 35 bd 4c 74 63 3e 03 b0 45 3e 5d d3 6c 3d
       -0.044227026 0.22212332 0.19305424 0.05781876
000010 71 91 3b be 69 e9 e6 bd e5 67 73 3e c8 ab 58 bd
       -0.183172 -0.11274988 0.23770101 -0.0528982
000020 d0 4f f6 3b 51 e5 c3 bd 69 cb ea 3d 57 14 f0 3d
       0.0075168386 -0.09565223 0.11464579 0.117226295
000030 21 d7 aa bc f0 f4 bf 3e 6c ee c4 3d 57 ed 5f 3d
       -0.020854535 0.3749156 0.09615788 0.054669704
000040 79 18 3e bd 54 5b 42 3e aa 68 c1 3e 8c 8b 7b 3e
       -0.046410058 0.18980151 0.37775165 0.24564952
000050 e5 f9 28 bd 86 ed 0a be 54 2f a7 3d fc 2b b8 3d
       -0.041253943 -0.1356717 0.08163324 0.08992764
000060 d2 8d 78 3e 5b 02 01 3e 36 31 c0 3d ed 49 d7 3d
       0.2427285 0.12598555 0.09384386 0.10512147
000070 09 8a 35 bd 48 1e 81 3e 79 bb a3 bb d0 0c 24 3e
       -0.044321094 0.25218415 -0.0049967137 0.16020513
000080 f4 2a 32 be 95 32 27 bc c5 ba 18 bc 5f 8e 8a 3d
       -0.17399198 -0.010204931 -0.009321873 0.067654364
000090 a1 16 6a 3e 4a f3 00 be 22 08 ee 3d 11 4a a9 3d
       0.22860195 -0.12592807 0.11622645 0.0826608
0000a0 df ff cf bd da 0a 8a 3d a9 04 52 be b1 9e 9e 3d
       -0.101562254 0.06740351 -0.2050959 0.07745112
0000b0 2d b4 bc 3d 9b 13 4b be 32 3f 90 be 59 85 3e 3e
       0.09214053 -0.19831698 -0.28173214 0.18605556
0000c0 a0 e3 95 be 78 7f c0 3e a3 9e ce 3e 46 34 a0 3e
       -0.29275227 0.3759725 0.40355405 0.3128988
0000d0 46 31 da 3d d6 33 8a be e2 ef fb 3d 59 1a 9d 3e
       0.106539294 -0.26992673 0.123016134 0.30684164
0000e0 dc e6 e7 3e 58 c8 f3 3e 13 21 87 3e 59 5e 67 3e
       0.4529332 0.47613788 0.2639242 0.22594585
0000f0 bb e2 9d 3e 3f da 74 3d 70 58 f5 3e a1 50 73 bd
       0.30837044 0.05977845 0.47919035 -0.059403066

linear.weight f4 [5, 16]
000000 75 02 b7 be 1f df ad be 46 24 33 bf 9d eb ff 3e
       -0.35744062 -0.3395929 -0.69977224 0.49984446
000010 f4 c3 e6 bd 57 e9 a6 be 57 9a 17 3e 05 29 6d bd
       -0.11267844 -0.325999 0.1480497 -0.057900447
000020 c7 95 42 3f 1c 67 a8 3e 27 e8 f8 3e b9 62 03 bf
       0.7600979 0.32891166 0.48614618 -0.51322514
000030 99 1d 49 be 33 e9 12 3f 16 74 19 3e 51 8f cf be
       -0.19640197 0.57387084 0.1498569 -0.4053903
000040 42 a6 68 be 77 f8 04 bf ff 2d 93 be 4e 78 f3 3e
       -0.22719672 -0.5194163 -0.2874603 0.47552723
000050 99 d3 d9 bd 2d 6d 94 3d d5 b9 39 3c f0 ee 8d be
       -0.10636062 0.07247386 0.01133581 -0.27721357
000060 94 e8 55 3f 04 cc b8 3e e2 db 04 3f b8 74 27 bf
       0.8355801 0.36093152 0.51898015 -0.65412474
000070 fd 7e 6f be ab 52 9c 3e 15 19 92 3e 35 db a2 be
       -0.23388286 0.3053182 0.2853476 -0.31807867
000080 3b fa c1 be 1f f5 0f bf de ab 30 bf f5 d5 d0 3d
       -0.37886223 -0.562334 -0.6901225 0.10197059
000090 15 13 9b be cb bc f9 3d 6b b3 26 3e 75 c8 13 be
       -0.30287996 0.121942125 0.1627938 -0.14431937
0000a0 eb 5e 1f 3f 68 04 26 3f 10 46 33 3e 50 75 22 bf
       0.6225421 0.64850473 0.17507195 -0.63460255
0000b0 d1 8c ea bd 33 0d 9b 3e fe b9 8b 3e 39 0b 47 be
       -0.1145264 0.30283508 0.27290338 -0.19437875
0000c0 57 fa 75 be 2e 7f 86 be 4d 82 19 bf c8 df 7a 3e
       -0.24021278 -0.26268905 -0.5996445 0.24499428
0000d0 c0 a6 b0 be e5 fe 6a be 5f 01 d5 3b 77 11 47 be
       -0.3450222 -0.22948797 0.0065004076 -0.19440256
0000e0 36 95 2d 3f 67 b1 dd 3e 77 7e 02 3f 37 44 1b bf
       0.678058 0.4329941 0.5097422 -0.6065096
0000f0 cf b6 36 be ae b7 ca 3e f9 c5 c1 3e 55 a2 cf be
       -0.17843173 0.3959326 0.37846354 -0.40553537
000100 26 26 bc 3d e6 10 00 bf e8 bc bc be 0c 5e df 3e
       0.09186964 -0.50025785 -0.36862874 0.4362644
000110 1a 20 63 be f7 17 25 3d 0b a7 52 3e 48 13 25 be
       -0.22180215 0.040306058 0.20571534 -0.16120636
000120 d1 82 4f 3f 4c bb cb 3e 15 75 88 3e aa 33 0c bf
       0.81058985 0.39791334 0.26651827 -0.54766333
000130 9c de be be a9 ec c3 3e ad a3 dd 3e 04 45 b7 be
       -0.37279212 0.38266495 0.43288937 -0.35794842

linear.bias f4 [5]
000000 b4 e2 c2 be bd cd 85 be 67 e4 19 bf 7a 3a a0 be
       -0.38063586 -0.26133528 -0.6011414 -0.31294614
000010 f0 52 01 bf
       -0.5051718
