seeding/seeds/fourpointtwo/0_1.pt (torch, 8224 bytes, 6 tensors)

lstm.weight_ih_l0 f4 [64, 4]
000000 48 cb d5 3d fe 01 69 3d c1 95 7f 3e 38 bb 8d 3e
       0.104391634 0.056886666 0.2495947 0.276819
000010 b4 cf 64 3d 01 4b 41 3d ab e7 38 be 2e 36 a2 bb
       0.055862144 0.04719067 -0.18057124 -0.0049503064
000020 da aa 04 be d8 25 8c be 67 08 27 bd f1 27 5e be
       -0.129558 -0.27372622 -0.040779497 -0.21694924
000030 c9 c4 57 be 3f ba 5c be 45 e4 2a be 62 40 6f 3c
       -0.21071161 -0.21555422 -0.1668864 0.014602752
000040 f0 be 12 3e f7 c3 6c 3e 6f 8a 0d 3e b0 e9 a8 3d
       0.1433065 0.2312163 0.1382234 0.08247697
000050 8e 6d d9 3d bc a5 2d 3e 75 15 93 be 7c 6d df bd
       0.10616599 0.16957754 -0.28727308 -0.10909554
000060 25 42 6f be 97 b6 4f be 11 c3 09 be b5 61 41 be
       -0.23365076 -0.20284496 -0.13453318 -0.18884929
000070 09 93 36 bd 12 59 e0 3c b9 39 51 bd 9f 44 7f bd
       -0.044573817 0.027386222 -0.05108044 -0.0623213
000080 a6 29 42 be ac 4a 40 3e 33 9d 85 bc 59 06 ac 3e
       -0.189612 0.18778485 -0.01631031 0.33598593
000090 ed 18 22 bd 41 3a 0f 3d ff 45 83 be a6 58 dd 3d
       -0.039574552 0.034967665 -0.2563934 0.10807924
0000a0 f6 03 0e 3d 68 00 33 be c4 31 79 be d5 5d aa be
       0.034671746 -0.17480624 -0.2433539 -0.33274713
0000b0 6f 98 a7 be f2 d0 13 3e 7e 39 95 3e 8d 61 72 3e
       -0.32733485 0.14435175 0.29145426 0.23670025
0000c0 bc f9 ee 3d 56 0f 4a 3d ba 9a 27 3e aa a8 08 bd
       0.11668727 0.04933103 0.16367617 -0.033363976
0000d0 7f 56 5c be 47 33 a7 bd d4 9f 7a be 94 23 4d bd
       -0.2151737 -0.08164077 -0.24475032 -0.050082758
0000e0 4f 74 7b bd 2f 3b 97 3e 82 19 b3 3c 07 8a a2 3d
       -0.061390217 0.2953734 0.021862749 0.07936483
0000f0 52 cc 23 3d c6 e5 43 3d e0 24 88 bd a0 dd c7 3e
       0.039989777 0.04782655 -0.06647658 0.39036274
000100 4f 7a 2c be dd 56 31 3e ba 30 7c bd 4a f4 aa 3e
       -0.16843532 0.17318292 -0.061569907 0.33389503
000110 f9 ab 82 3d 46 5d 36 3e 5b 82 03 3e 0d 5e 2d be
       0.063804574 0.17809018 0.12842695 -0.16930409
000120 97 84 cf bd 73 59 07 3e a8 11 41 3e bc 6b 42 be
       -0.101327114 0.13217716 0.18854392 -0.1898641
000130 b8 a2 5d 3e 83 63 b4 be 78 f8 8a be fb b8 a7 bc
       0.21644104 -0.3523217 -0.27142692 -0.020473948
000140 f0 fb c5 3d 50 cf 34 be af e8 ac 3d ce 31 44 3d
       0.09667194 -0.17657208 0.084428184 0.04789906
000150 20 91 0a be 40 78 ad be ba 8a 73 bd 9f 23 b8 3d
       -0.13531923 -0.33880806 -0.05945847 0.08991169
000160 1f e1 d8 bd c7 a1 ff 3d 0c 7d 1b be cb 3d 70 bd
       -0.105898134 0.124820285 -0.1518442 -0.05865268
000170 21 47 03 be 62 6c 7f 3e 34 00 98 3c a4 ba ea bd
       -0.12820102 0.24943689 0.018554784 -0.1146138
000180 b9 8b 34 bd 50 af b1 3e ae 9f 8c 3e a8 61 72 bd
       -0.044078562 0.34704065 0.27465576 -0.059175164
000190 ae ed 24 be 1a 0a b3 3e 1a b5 a1 3e 35 90 ab 3e
       -0.16106293 0.34968644 0.31583482 0.3350846
0001a0 d9 79 1c 3e d4 f6 be bd ec 6b b4 bd d7 e2 b3 3d
       0.15280856 -0.093244225 -0.08809647 0.08783501
0001b0 ca e2 bd bd 23 c0 86 3e 14 7f 75 3e 9a ee be 3d
       -0.09271772 0.26318464 0.23974258 0.093228534
0001c0 85 39 da 3b 42 43 6b 3d 7c 34 3f 3e a9 9a 1f 3c
       0.006659689 0.05743719 0.18672365 0.009741464
0001d0 fa d8 62 be 5d b0 4c bd 31 93 bd 3e 8e 42 9b bb
       -0.22153082 -0.04997288 0.3702636 -0.0047381585
0001e0 88 6b 71 be 52 b6 8e 3e 1a dc 43 3e 8c a7 5f 3e
       -0.23576176 0.27873474 0.19126931 0.21841258
0001f0 68 05 8e 3d 26 3e 1d 3d 79 7a c7 3e e3 03 8c 3d
       0.06934625 0.038389347 0.38960627 0.06836679
000200 c7 de b3 3d 4c 8b 0e be 10 66 fc bc 82 d1 68 be
       0.08782726 -0.13920325 -0.030810386 -0.22736171
000210 a2 03 3e bd fa 0d 8d 3d 86 20 c2 bd b8 fb c8 bd
       -0.046390183 0.068874314 -0.094788596 -0.098136365
000220 c3 2e 37 be af 74 18 3d 18 fe 48 3e 81 e7 2d 3e
       -0.17888932 0.037220653 0.19628179 0.16982843
000230 05 3c 86 3d 44 3a 3d 3e 68 11 eb 3d aa f6 bf bd
       0.065544166 0.18479258 0.11477929 -0.09373219
000240 91 de 3e be fc 53 1f 3d 04 9c cd 3d 7d 2d 0d be
       -0.1863959 0.038898453 0.10039523 -0.13786884
000250 a0 09 0d 3e 7d e1 67 3d 51 c6 a5 bd 8b 76 fe 3a
       0.13773203 0.056611527 -0.080944665 0.0019413991
000260 21 82 88 be 0c 6e ba 3d 4e a7 3a 3e 2b ef 21 be
       -0.2666178 0.09103021 0.18227884 -0.15813892
000270 a5 38 99 3e e0 4a 7a be 0e 2e 49 3b f4 cd f4 bd
       0.2992603 -0.24442625 0.0030697617 -0.11953345
000280 64 69 4f 3e 6b 7f 83 be 1a 4f 9f 3d 32 03 ee 3d
       0.20255047 -0.2568315 0.07778759 0.11621703
000290 63 49 07 be 0d 33 07 3e 65 07 c6 3d 1d 09 41 bc
       -0.13211589 0.13203068 0.09669379 -0.011781958
0002a0 2b 0a 08 bd ce e5 b4 bd f3 3a 57 bc c6 ee 19 be
       -0.033212822 -0.08832894 -0.013136613 -0.15032491
0002b0 8e 4a 95 3e 06 24 a3 be 21 4c 04 be 3f 63 2d 3d
       0.29158443 -0.3186342 -0.12919666 0.042330977
0002c0 04 31 47 bc 23 a1 df 3d 1c f2 07 3e 95 45 42 bd
       -0.012157682 0.10919406 0.13275951 -0.04742964
0002d0 f4 1e 8c 3e 17 52 ca bd 29 1a c2 3b a6 83 a0 be
       0.27367365 -0.09878939 0.0059235287 -0.3135044
0002e0 40 a0 a1 3d 5e c1 77 3e 01 76 c2 3d d0 41 81 3d
       0.078918934 0.24194857 0.09495164 0.06311381
0002f0 95 44 21 3e c8 62 94 be b4 be 3e be 82 06 bf be
       0.15748818 -0.28981614 -0.18627435 -0.37309653
000300 86 e7 9a 3c ad e1 2e 3e 98 dd 1a 3d 16 74 50 3e
       0.018909227 0.17078276 0.037808985 0.20356783
000310 a5 c4 3e 3d 6d 5d af bd 6a 7a e7 3d b1 95 26 3f
       0.046574254 -0.085627414 0.113026455 0.6507216
000320 30 4b f9 3c 61 b6 87 bd af df 47 be 90 39 b0 3d
       0.03043136 -0.06626583 -0.19518922 0.08604729
000330 8a 22 27 be 6b c7 9e bd 0b fc af bd 37 1e dd bd
       -0.1632177 -0.0775288 -0.08592995 -0.10796779
000340 c9 cd 83 be 3a 1d ff 3d 0d 6f 2a bb ac 59 9e be
       -0.2574294 0.124567464 -0.0026006133 -0.3092779
000350 f3 f6 28 3e a9 f1 16 3e 4c 43 22 3d b9 d0 0c bd
       0.16500454 0.14740624 0.03961496 -0.03437874
000360 cb 5a 20 3d 19 ba 37 be ac ea 06 3e 62 64 01 be
       0.039149087 -0.17942084 0.13175458 -0.12635949
000370 bc 06 49 be 5d bf 43 3e 37 c3 b2 3e 4a 93 ba 3e
       -0.19631475 0.19115968 0.34914562 0.36440498
000380 8b 9a 02 3e ab d9 47 3c 24 f9 99 3e 69 da b9 3e
       0.12754266 0.012197892 0.30072892 0.36299446
000390 88 5f 51 be c7 66 75 3e 73 d9 88 3e d5 2a ce 3c
       -0.20446599 0.23964988 0.267284 0.025166908
0003a0 27 3a 8d bd 12 4b 0a be 76 73 13 3e 65 33 3a be
       -0.06895857 -0.135052 0.14399514 -0.18183668
0003b0 58 50 f1 bd dc 4b 54 3e a6 5d 8a 3e 8a 65 bf 3e
       -0.117829025 0.20732063 0.27024573 0.37382156
0003c0 83 5f a9 3d e8 3b af 3d 35 11 e9 3c 77 a3 7a 3d
       0.082701705 0.08556348 0.028450588 0.06119105
0003d0 eb 56 aa bd 60 22 49 3e 57 83 ea bd 39 3c d5 bd
       -0.083173595 0.1964202 -0.11450832 -0.10411877
0003e0 5e b9 5f bd b6 c2 d7 3e 38 0c 51 3e 9e 94 d8 3e
       -0.05462014 0.4214074 0.20414817 0.42300886
0003f0 87 a0 d5 bd 37 83 7d 3e 5e d2 9f 3e 4f 92 6a 3e
       -0.10431009 0.24757086 0.31215185 0.22907375

lstm.weight_hh_l0 f4 [64, 16]
000000 95 2c 71 be 8c c1 16 bb fb c0 53 3e cb cf fb 3d
       -0.23552163 -0.0023003547 0.20679085 0.12295493
000010 0e 22 e6 bd ca 33 33 3e f3 ab 9e 3e 1f a4 0f 3d
       -0.11236964 0.17500225 0.30990562 0.035068627
000020 1b b2 2b be 92 ba a3 be ab 19 95 3e 55 4f d4 be
       -0.1676716 -0.3197828 0.29121146 -0.41466776
000030 74 23 23 3e 5b 93 97 bd 39 d0 08 3e 18 98 3f be
       0.15931493 -0.07401153 0.1336068 -0.18710363
000040 fe a3 a7 be 9a 43 f2 3e 69 4a 28 be 04 93 a5 be
       -0.32742304 0.473172 -0.16434635 -0.32338727
000050 bc a1 e4 3b 76 72 eb bd 0d ce d4 bd 58 b7 96 bc
       0.006977288 -0.11496441 -0.103908636 -0.018397972
000060 4a 4b e9 be 7c 19 b8 3e 95 6f ce bb 44 92 25 3d
       -0.45565253 0.35956943 -0.0062999227 0.040422693
000070 66 4e 8f 3e 25 bf 0a 3d a4 2d 41 3e 9c 45 e4 be
       0.279895 0.033873696 0.18865067 -0.44584358
000080 07 ba ce be ca 69 59 3e b4 59 ac bd b6 ff 10 be
       -0.40376303 0.21231762 -0.08415547 -0.14160046
000090 70 4d 5e be c4 3c b1 3e 0e 06 8e 3d a5 2c 40 be
       -0.21709228 0.34616673 0.069347486 -0.1876703
0000a0 10 91 11 3d 68 65 6d 3d 16 f8 9b be 67 60 1d be
       0.035538733 0.057958037 -0.30462712 -0.15368806
0000b0 d8 04 68 bc 59 57 d2 bc 34 fc e8 3d 94 b9 a4 be
       -0.014161311 -0.025676416 0.11376229 -0.32172835
0000c0 60 fa c6 bc 75 c6 47 3d e6 6d 50 3d bd 13 b7 bd
       -0.02428931 0.048773248 0.050886057 -0.08939312
0000d0 60 5d 49 bd 3d 7b 95 3e 29 3d a5 3d 89 fa 8b 3e
       -0.049161315 0.29195586 0.08068306 0.2733958
0000e0 01 f1 5e be 9f a8 7a 3e 5f b5 cc bc f9 0f f1 3b
       -0.21771623 0.24478386 -0.024988828 0.0073566404
0000f0 b1 32 f4 bd 43 22 b7 3c 4b b2 e4 bd c2 25 c9 3d
       -0.11923731 0.022355204 -0.11166819 0.09821655
000100 11 be 9c 3d 3e 56 0a 3e 27 1c d3 bd a2 a5 08 be
       0.0765344 0.13509461 -0.10308104 -0.13344434
000110 4e 8c 72 be 2c cb 0a be 2d 21 aa be ff 29 2b 3e
       -0.23686334 -0.13554066 -0.33228436 0.16715239
000120 9f a1 c1 3d 04 f4 33 bc 93 6c 55 be e4 c0 d0 bc
       0.09454655 -0.010983471 -0.20842199 -0.025482602
000130 c8 01 95 3e dc b5 08 be e9 59 9a bc a7 05 e6 bd
       0.2910292 -0.13350624 -0.0188417 -0.11231547
000140 dc 6c c6 be 0f b9 bb 3e d9 65 5a be bc a7 89 be
       -0.38754928 0.36664626 -0.21327914 -0.26885784
000150 f8 a7 13 3e 15 f2 f2 3d d0 20 3d bd c2 92 93 3e
       0.14419544 0.1186258 -0.04617387 0.28822905
000160 c0 b3 7b 3d 55 ef 02 3f fc fe 15 be 39 54 98 3e
       0.06145072 0.5114644 -0.1464805 0.29751757
000170 1e 05 aa 3e f9 75 8e be 1a 16 05 bd 31 ed 5f be
       0.3320703 -0.2782438 -0.03249178 -0.21867825
000180 43 ab 81 be 9b 06 88 3d 0b 61 a9 3d 85 ff 3e be
       -0.25325975 0.06641885 0.082704626 -0.1865216
000190 46 9a 68 bd 57 b7 3e bd 88 5e bf 3d 20 1d 8b 3e
       -0.05678775 -0.046561565 0.09344202 0.27170658
0001a0 69 7f 69 3d 22 a5 78 bb 54 ff 76 be 50 82 09 be
       0.057006273 -0.0037940224 -0.24120837 -0.13428617
0001b0 5e 09 dd 3d cd 4c d4 bd 32 9c d5 bd 94 2a 28 be
       0.10792802 -0.10366211 -0.104301825 -0.16422492
0001c0 7f 37 8a bd 70 26 7b 3e 30 47 59 3e 2f 35 b6 3e
       -0.06748866 0.24526381 0.21218562 0.3558745
0001d0 a8 d5 ed bc 7d 73 d5 bd a4 79 fc 3d 21 e6 c0 bd
       -0.029032543 -0.10422418 0.123278886 -0.094188936
0001e0 0f f1 a9 bd a9 79 13 3e e0 69 d5 3d 4d cc e7 bd
       -0.082979314 0.14401878 0.10420585 -0.11318264
0001f0 33 a0 27 3d d6 09 17 bd 34 00 07 3e 6f f0 d3 be
       0.040924262 -0.036874615 0.13183671 -0.41394374
000200 13 50 dc 3c de d4 6d 3e c0 e3 6b 3d 36 04 d0 3d
       0.026893651 0.23225734 0.057590246 0.10157053
000210 7b 75 eb 3d 31 13 2a be 89 c2 21 3e dc 8a 39 be
       0.11497017 -0.16608883 0.15796866 -0.18119377
000220 ce 7a 8a be bd 34 65 3d d2 e8 8a 3d fe cf 61 bd
       -0.27046818 0.0559585 0.06782688 -0.055129997
000230 64 e1 92 3c 1e 40 9e bd 0b a7 25 3e 4a 72 0e 3d
       0.01792974 -0.07727073 0.16177003 0.034776963
000240 06 70 a5 be c6 e4 93 3e 04 74 81 3e bc 2e 88 bb
       -0.3231203 0.28885478 0.25283825 -0.004155962
000250 ec 90 32 3e 61 dd 38 be a5 be 05 3c ab d1 8e be
       0.17438096 -0.180532 0.008163129 -0.2789434
000260 53 c9 c4 be f1 53 02 be aa 9b f6 3d 49 4c 1f 3d
       -0.38434848 -0.12727334 0.12041409 0.03889111
000270 f8 cf ad 3e ad 09 33 3e 53 34 23 3e 8c 5b 1d be
       0.3394773 0.1748416 0.15937929 -0.15366954
000280 06 79 1a 3e bc 64 38 3c 37 72 4c be c7 4b c3 bd
       0.1508523 0.011254486 -0.19965445 -0.09535938
000290 66 e6 4f 3c 4e 5b df 3d 88 44 7c be 1d 46 70 3e
       0.012689209 0.10906087 -0.24635518 0.23464246
0002a0 9b 24 cb 3d a2 a3 7e bc 67 d0 1f be 62 46 79 3d
       0.09919091 -0.015541943 -0.15606843 0.060858138
0002b0 4d 67 06 3e 08 53 82 3d 55 e0 4b be d4 78 7f bc
       0.13125344 0.06363493 -0.19909795 -0.0155927725
0002c0 35 18 9b be 36 4a 9e 3c 3b db 52 3e 50 d0 88 3e
       -0.30291906 0.019322496 0.20591442 0.2672143
0002d0 b9 6e de bd a7 52 64 3d 3f 28 69 3d fa 33 6c be
       -0.108609624 0.055742886 0.056923147 -0.23066702
0002e0 fa ae c9 3d cf e0 9f be 5a 85 92 bc e4 ae 88 be
       0.09847827 -0.31226203 -0.017885853 -0.2669593
0002f0 6a 8d e6 bc 65 30 48 3d cc ad 78 3d 6c e7 51 be
       -0.028143603 0.048874278 0.06071262 -0.20498437
000300 9f 7b 07 be 6c 13 2d 3d da 49 77 3e 92 ed 88 bd
       -0.13230751 0.04225485 0.24149266 -0.06685938
000310 50 c9 28 3d 45 84 9e 3e ed 50 3c 3d b1 db 86 be
       0.04120761 0.3096029 0.045975614 -0.26339486
000320 d2 6b b9 3c 35 8a eb bd 19 bf 80 3e d6 93 ab 3d
       0.02263442 -0.1150097 0.25145796 0.08377807
000330 a1 1b 33 3e 42 b6 5e bd 31 c5 91 3e 84 41 b6 be
       0.17491008 -0.054373033 0.28470758 -0.3559686
000340 78 75 ab be db d2 0f 3e d9 db 8f bd d2 3b 8a be
       -0.3348806 0.14045279 -0.070243545 -0.26998764
000350 0a b5 3c be 18 39 e2 bd bc de 49 bd f5 93 ac bc
       -0.18428436 -0.11046046 -0.04928468 -0.021066645
000360 36 2c 28 3e 5b 77 4b 3e 23 83 16 bd ec f3 9c 3e
       0.16423115 0.19869749 -0.036746155 0.30654848
000370 d0 83 4a 3e 32 ec 96 be e3 04 18 bd f7 70 17 3b
       0.19776845 -0.29477078 -0.037114035 0.0023108104
000380 fd d2 93 3d 7f c2 94 3d 30 34 0d 3e af 4a 18 3e
       0.07217977 0.0726366 0.13789439 0.1487224
000390 b7 5c 99 3e 7d da 34 3c e5 43 f3 3d 27 bd 29 be
       0.29953548 0.01103842 0.11878184 -0.16576062
0003a0 cb 95 ee 3d 9d 63 2d 3e d1 65 85 be 07 47 94 be
       0.116496645 0.1693253 -0.26054242 -0.2896044
0003b0 61 ba 0b 3e 7e 9c 9f 3d 0b ab a5 3b 34 67 86 be
       0.13645317 0.077935204 0.0050557903 -0.26250613
0003c0 12 6c 7e bd 28 6e 97 3e 30 61 97 3e 97 9b 54 bd
       -0.062114783 0.2957623 0.29566336 -0.051906195
0003d0 ea 75 4d 3e 06 69 c9 be 47 af fd 3d 76 bb 55 be
       0.20064512 -0.3933794 0.12386947 -0.20872292
0003e0 ec f8 37 bd 11 eb 29 be 00 66 af 3e 88 34 a3 be
       -0.044915125 -0.16593577 0.34257507 -0.31876016
0003f0 aa 27 10 bd f8 38 9e be 61 d8 e2 3c c8 e2 c0 be
       -0.035194077 -0.3090284 0.027691068 -0.3767302

lstm.bias_ih_l0 f4 [64]
000000 29 c3 30 3e 11 f1 09 be d8 e1 a7 bd be ba b0 3d
       0.17261948 -0.13470866 -0.08197373 0.08629368
000010 cf b9 2a 3e 62 e0 92 bd 3b 43 55 3d 4b 0b 51 3d
       0.16672443 -0.07171704 0.05206607 0.05103616
000020 44 6c 8a 3d 3d 3a f4 3d 42 6e a2 be ec 3a c3 bb
       0.06758931 0.119251706 -0.31724745 -0.005957952
000030 9b 24 9e 3d 32 c5 a9 3d b3 45 c7 bc f4 1b 04 3f
       0.07721826 0.08289565 -0.024325227 0.51605153
000040 fd 55 12 3e cf 81 4b 3d e7 36 69 be 94 cb f6 3d
       0.14290614 0.049684342 -0.2277485 0.12050548
000050 9b ae a2 bd 90 2e a4 bd 8a 5f 77 bd da 3a 75 3e
       -0.079434596 -0.080166936 -0.060393848 0.23948231
000060 08 4c a1 3e 11 86 09 be 8b 24 77 bd 28 0d 81 3e
       0.3150332 -0.13430049 -0.060337584 0.2520535
000070 05 d2 21 3e 9b 43 b9 3e 1a d4 e9 bb 6c b4 60 3e
       0.15802772 0.3618439 -0.00713588 0.21943825
000080 59 97 be be 36 60 54 3e 71 e1 e6 3d 64 ce ec 3d
       -0.37224844 0.20739827 0.11273468 0.115628034
000090 f2 3d 1a 3e 99 e2 2a 3c 37 9c 9f bc f0 45 af be
       0.15062693 0.010430002 -0.019483669 -0.34233046
0000a0 45 92 30 3b 2c e8 70 bd 2e 8d 68 3c 60 5e 19 be
       0.0026942652 -0.058815166 0.014193816 -0.14977407
0000b0 a9 01 a6 3e 13 3c e6 bd 82 1a 84 bd 55 23 07 be
       0.32423142 -0.11241927 -0.064503685 -0.13197072
0000c0 7e f6 e8 3e db db d3 3d e2 8d 70 3e e2 19 07 be
       0.4550056 0.103446685 0.23491624 -0.13193467
0000d0 94 a2 1f be 67 32 33 3d 87 06 ee 3d d8 e4 08 3e
       -0.15589362 0.04374924 0.11622339 0.13368547
0000e0 b9 40 90 3e 58 13 41 bd 72 f3 2d be 42 fe bb 3e
       0.2817438 -0.04713759 -0.16987398 0.3671742
0000f0 da 33 9c 3e ca a1 19 bd 74 0b cf 3d ed 75 58 3e
       0.3050831 -0.03750781 0.101096064 0.21138735

lstm.bias_hh_l0 f4 [64]
000000 5a 7c cc 3e 5d 89 a8 bd e7 c9 1b be 35 3d 0e 3d
       0.39938623 -0.08229325 -0.15213738 0.03472634
000010 7d d7 55 3d 79 c8 d5 bd cd fa 04 3d 1d b2 27 bd
       0.05220746 -0.10438628 0.032465745 -0.040941346
000020 66 38 8b 3e 11 db 42 3d d6 e6 95 be c3 c4 48 3e
       0.27191466 0.0475722 -0.29277676 0.19606309
000030 ee 36 cf 3c 9a 17 0d 3e f0 eb 1d be 96 1d fd 3d
       0.025294747 0.13778535 -0.15422034 0.12359159
000040 59 fa 18 3e f9 87 0c 3e 67 7e 85 bd b3 d8 da bc
       0.1493925 0.13723744 -0.0651825 -0.026714658
000050 97 2f a7 bd 00 db b1 be 4c e1 14 be 6f 9b bd 3e
       -0.08163374 -0.34737396 -0.14539069 0.3703265
000060 e9 74 8f bd 78 0d b7 bd 46 c7 4e be 2a 5c 6f 3e
       -0.07004721 -0.08938116 -0.20193204 0.23375002
000070 bf 2a 39 bd 00 6f 87 3d 8c a2 a9 3e 76 85 ae 3e
       -0.04520678 0.066129684 0.33131826 0.34086198
000080 ea 00 6a be 1f 0f 8d 3e 02 a0 f8 3d 36 07 79 be
       -0.22851911 0.275506 0.12139894 -0.24319157
000090 33 c5 13 be 9e 68 d5 3d 9d 25 bd 3d e2 b3 b3 be
       -0.14430694 0.10420345 0.0923569 -0.35098177
0000a0 53 4f 5f 3c 3f 7a 1d be 64 30 b1 be 95 0c 9a bd
       0.013629752 -0.15378664 -0.34607232 -0.07521931
0000b0 06 8e c6 3d 9e f4 6a 3d 70 43 9c 3e d0 aa 94 bd
       0.096950576 0.05736219 0.305202 -0.072591424
0000c0 5a 84 e1 3e e2 f6 0c 3e db 9c cc bd c0 94 09 be
       0.4404629 0.13766053 -0.09990855 -0.1343565
0000d0 b1 99 fd 3c 7c e2 b7 3d 65 ff e3 3d 64 31 a1 3e
       0.030957075 0.08978745 0.11132697 0.31482995
0000e0 73 38 8f 3e a1 a8 a1 3e bd 05 1b bd cf a2 af 3d
       0.27972755 0.31573966 -0.03784727 0.08575975
0000f0 e6 56 9a 3d 8a b4 09 3e 47 35 9d 3e 5d 06 69 3e
       0.07536106 0.13447776 0.3070471 0.22756334

linear.weight f4 [5, 16]
000000 f9 3c 63 bf 85 db 8b 3f 28 df 5a 3e f2 b7 e6 3c
       -0.8876491 1.0926367 0.2137419 0.028163884
000010 c0 04 6a 3e 6e ad 28 3e 11 71 4b 3e 29 45 a8 be
       0.22853374 0.16472408 0.1986735 -0.32865265
000020 c3 1d bf be 88 70 18 3e 13 70 a4 3e 19 b6 b7 be
       -0.37327394 0.14886677 0.32116756 -0.35881117
000030 28 66 ec 3e 68 89 e1 be 21 5e ca 3e 0d 92 f8 be
       0.4617169 -0.44050145 0.3952494 -0.48548928
000040 9a f7 17 bf 2c 14 6a 3f 10 2a 9d 3e e0 3c f2 bd
       -0.59362185 0.9143703 0.30696154 -0.11828017
000050 46 54 93 3e cb 9d 00 3d c0 1c 34 3e b7 60 d0 bd
       0.28775233 0.031400483 0.17589092 -0.10174697
000060 c5 80 15 bf b8 fa 04 3f 8e e7 6c bc 70 37 19 bf
       -0.5839961 0.51945066 -0.014459504 -0.59850216
000070 53 eb a4 3e 40 27 79 be 1b 3c 14 3f c8 7a ff be
       0.32210788 -0.24331379 0.57904214 -0.49898362
000080 ff 82 5b bf 59 a4 7b 3f 20 12 07 3f d4 40 62 3e
       -0.8574676 0.9829765 0.5276203 0.22095042
000090 7d d5 6c 3e 80 6b 44 3e 47 49 55 3e 84 cd c1 be
       0.23128314 0.19181633 0.20828734 -0.37852108
0000a0 f5 64 06 bf 38 88 b1 3d 37 bb 84 bd f4 b4 16 bf
       -0.524978 0.0866856 -0.06481021 -0.5886986
0000b0 e8 56 1d 3e da 9a 13 bd 08 65 c4 3e 6f 0e 3a bf
       0.15365183 -0.03603635 0.3835833 -0.72678274
0000c0 76 f4 27 bf 52 37 6d 3f f5 fa a9 3e d6 20 b4 bd
       -0.6560739 0.9266254 0.33199278 -0.087953255
0000d0 66 d4 cd bd cc 71 e2 3d e8 32 61 bb a3 f7 06 bf
       -0.100502774 0.11056861 -0.0034362618 -0.52721614
0000e0 02 47 d9 be 1f 16 d6 3e 81 ac 47 3e 6d 73 d7 be
       -0.42436987 0.41813752 0.19499399 -0.4208025
0000f0 a1 ed ee 3e a7 6e a8 3a 1a 3c 0d 3f 3f 5b e0 be
       0.4666567 0.001285036 0.5516983 -0.43819615
000100 fa 7d 40 bf 69 0e 66 3f eb a2 05 3e 11 a6 f3 bd
       -0.75192225 0.8986574 0.1305043 -0.11896909
000110 b0 97 0e bd ea 59 4f 3e 1d 2b 65 3d e6 81 bc be
       -0.03481263 0.20249143 0.05594932 -0.36817855
000120 78 60 36 bf 6b be e2 3e d9 0d 0f be 3a ab d6 be
       -0.7124095 0.44285902 -0.13970126 -0.4192751
000130 32 ab 97 3e 83 50 86 be b8 e6 c0 3e 1d db 05 bf
       0.296228 -0.262333 0.37676024 -0.52287465

linear.bias f4 [5]
000000 95 ae ba 3e 12 1b 27 3f 3e 67 f6 3e 10 5f fa 3e
       0.3646132 0.6527568 0.48125643 0.48900652
000010 a0 5b 04 3f
       0.5170231
