seeding/seeds/fourpoint/0_0.pt (torch, 8224 bytes, 6 tensors)

lstm.weight_ih_l0 f4 [64, 4]
00000000: b32c 0abd 1b81 a4bd 4995 afbd f682 1c3e
00000010: b4e7 42be 0333 45be 8cc1 18be 818b ab3d
00000020: 7b9f b9be e3cc 00bd 1a9d 34be 7192 073e
00000030: 8a3a 133e 9cd2 15bd 4335 ae3e cec4 7a3e
00000040: 9b8c 833e 4ec4 903e 57cd bcbd fdb5 c83d
00000050: 1b72 c0bc 1878 65bd c845 393e 32bc 533e
00000060: 1b67 773d 2878 3dbd 9a9c 803e ffdf 933d
00000070: 2fb3 693e 171e e13d 4832 a83e 655c f1bd
00000080: 6725 c63c ddf5 833d 82e5 9dbe fa6c 283d
00000090: 838e 92be fd8d dabd f1fb 86be e3f0 08bd
000000a0: ee86 6e3e 43ed 853e d0c3 b6bd 2286 093d
000000b0: 6338 033e 41f9 7c3e 4c24 3e3e 8ab2 a23d
000000c0: acac a03e 5a6f 643e 771c f4bd 0b20 23be
000000d0: fffd 863c 9357 ad3d 7df0 58be 2ad1 373e
000000e0: 4ecb a53b 4308 c83e ad52 9a3d a8a1 83be
000000f0: 5a7a 0c3e 4cf8 bf3e d0cc cc3e 5916 913e
00000100: 0b34 f4bc 96fa 16be b919 61be b9ff a03d
00000110: 05cc 87bb 8d32 59be a896 073e 44c2 21bd
00000120: 4a97 923c 8a2b 28bd 8f89 20be 8af8 29be
00000130: a533 2fbd be36 863e e362 91bd 7d11 903e
00000140: 8354 863e 2d8b bfbb 66e8 ec3d 913b e8bd
00000150: 9704 043d 3f81 713d eb9d 1fbd 0ea4 b43d
00000160: dc15 c2bc f5b5 4d3e f5c5 e53d 7caa fd3d
00000170: 6985 68be 49d7 c43d ef0c 913e c0a7 203e
00000180: 86a3 3dbe 8bac a93d 29d8 c83e cc55 ec3d
00000190: a88a 20be a8b4 583d 0d28 25be 3278 5dbd
000001a0: 60ec 953e 435a 1d3c 5a85 913d 5b50 94bd
000001b0: 0510 1cbe e7a0 833e 94d0 083e 0d2b 81be
000001c0: 80f6 6ebe 2bb5 4f3e dc21 d53d f575 9c3e
000001d0: cdd4 69bd f374 5c3e 9874 26be f3ef 0cbe
000001e0: 6289 5b3e 605a 1dbd 218d 663e 83c4 d23d
000001f0: e321 f3bd 2032 ab3d 141b cb3c 9b00 f83d
00000200: 4c19 83be 5b15 e33b 99c2 453c 0a69 c63c
00000210: f16b 89be 89c8 fbba e9cd 453d ed73 adbd
00000220: ddeb 49bd 4c8b a0be 649e 223d 80dc 933c
00000230: ffe6 063e 07dd 083e a840 62bb c6a9 f9bd
00000240: d884 353e f69d 863d 4fda 5d3e 0c2f 953e
00000250: 8686 163e cbef 5abe 47c4 78be cf84 90be
00000260: 0831 efbd b582 e53d c504 f93d 49b3 bc3d
00000270: d0a8 a43d b77c dabd 984a 0bbe 0577 e9bd
00000280: 3fe3 043e fb53 23be 4027 d73b 6576 e23c
00000290: 868e e4bd 5714 01be 1ed3 edbd e42b ae3e
000002a0: 231d 3bbd 3f8e 333e a712 923e 74bb 14bb
000002b0: cd73 563d 8a53 343e cd15 443c daac e6bb
000002c0: 6f9f d73d b58f 833e 0b62 f8bb 2b01 193e
000002d0: 6d7c 653d 0873 51be 31ba 9ebe ae96 683e
000002e0: 8efe 86bc 0dee bebd 7492 39be 9fd4 b73d
000002f0: 3a3d 563a 2296 acbe 1553 cabe 809d 9abe
00000300: e97e 86be 3cae 42be ae2c b0be d9c6 68be
00000310: 09e2 49be e910 94be be97 95be e3bb 0cbe
00000320: d79e 92bd 4214 7e3c 91e8 d53d 8a3b 653d
00000330: 90f2 2d3e 908c a73e 5cd4 813d 1c59 5a3e
00000340: e389 ad3e cab8 223e 233f 98bd a66b 7b3e
00000350: 78e1 6ebd 09ad 033e eaed 413e 1c74 a63d
00000360: 9b96 013e cd75 193e 5110 36be a81d 91bd
00000370: 31ce 01be adfd 113e 1065 8f3e 63ca 813d
00000380: b320 9e3c c55a 40be 0930 573d 7d28 f53d
00000390: edad 5dbc 2886 96be 701f e2bd 8886 543e
000003a0: 0342 7f3e b6ad 9f3e 44b1 f8bd 0828 6e3d
000003b0: 8715 e83d 1ea4 923d 095d b13d 9c81 6d3e
000003c0: 8347 07be 26d7 d23d ab38 c43e a00e d63e
000003d0: 5754 4cbe a2de 833e f29f 1fbe 6cc6 b23d
000003e0: 8c6c 863d 5f2c 1c3e adb2 803d 1326 9d3e
000003f0: 048e 20be 2284 4e3e 06fd e93d dc09 423e
-0.033734035 -0.080324374 -0.08573396 0.15284333 -0.190337 -0.1925774 -0.14917582 0.08376218
-0.36254486 -0.031445395 -0.17638054 0.13239457 0.143778 -0.036577806 0.3402501 0.24489138
0.2569321 0.2827477 -0.09218853 0.098003365 -0.02349191 -0.056022733 0.18093026 0.2067726
0.060401063 -0.046257168 0.25119478 0.07220458 0.2282226 0.10992067 0.32850862 -0.11785201
0.024187757 0.06443379 -0.30839163 0.041119553 -0.28624353 -0.10671613 -0.2636409 -0.033432852
0.23293659 0.2615758 -0.08924067 0.033575185 0.12814479 0.24704458 0.18568534 0.0794421
0.31381738 0.22308102 -0.11919492 -0.15930192 0.016478537 0.08463969 -0.21185489 0.17950884
0.005059636 0.39068803 0.075353004 -0.2570927 0.13718548 0.37494123 0.4000001 0.28337362
-0.029809972 -0.14744028 -0.21982469 0.07861275 -0.004144194 -0.2121069 0.13241065 -0.039491907
0.017894406 -0.041057147 -0.15677474 -0.16598716 -0.04277386 0.2621364 -0.07098939 0.28138342
0.26236352 -0.0058454485 0.11567764 -0.113394864 0.03223094 0.05896115 -0.03896896 0.088203534
-0.023692064 0.20088942 0.11219398 0.12386033 -0.22707142 0.09611375 0.2833018 0.15688992
-0.1851941 0.08284863 0.39227417 0.11539802 -0.15677893 0.052906662 -0.1612856 -0.054069705
0.29281902 0.00960404 0.07105513 -0.07241889 -0.15240486 0.25708696 0.13360816 -0.25228158
-0.2333622 0.20283954 0.10406849 0.30558744 -0.05708771 0.21528988 -0.16255414 -0.13763408
0.21439126 -0.038416266 0.22514774 0.10291388 -0.11871698 0.0835917 0.024793185 0.121094905
-0.25605237 0.006930036 0.0120703215 0.024220008 -0.26840165 -0.0019209544 0.048292074 -0.08469377
-0.049297202 -0.31356275 0.039701834 0.018049479 0.13174056 0.13365565 -0.0034523401 -0.12190585
0.17726457 0.065730974 0.2166531 0.29137456 0.14699754 -0.21380536 -0.24293624 -0.28226325
-0.11679274 0.11206571 0.12159113 0.092138834 0.08040011 -0.10668319 -0.13602674 -0.11399654
0.12977313 -0.15950005 0.0065659583 0.027644346 -0.11159997 -0.12605415 -0.11612533 0.3401786
-0.045682084 0.17534731 0.28529856 -0.0022694739 0.05235653 0.17609993 0.011968088 -0.0070396485
0.105284564 0.25695577 -0.007580047 0.14941852 0.056026865 -0.20454037 -0.31001428 0.2271373
-0.016478803 -0.09322748 -0.18122274 0.08976101 0.00081725756 -0.33708292 -0.39516512 -0.30198288
-0.262687 -0.19011778 -0.34409088 -0.22732104 -0.19715132 -0.2891915 -0.29217333 -0.13743548
-0.071592025 0.0155077595 0.10444749 0.055964984 0.16987062 0.32724428 0.063393325 0.21323055
0.33894262 0.15890804 -0.074339174 0.24552783 -0.058320493 0.12858976 0.18938413 0.08127615
0.12655108 0.14986344 -0.17779662 -0.070857346 -0.12676312 0.14256926 0.28006792 0.0633743
0.019302702 -0.18784626 0.052536044 0.11970613 -0.013530237 -0.29399228 -0.110411525 0.20754445
0.24927525 0.31187218 -0.12143186 0.058143646 0.11332231 0.07160209 0.08660323 0.23193973
-0.13210873 0.102949426 0.38324484 0.41808033 -0.19954048 0.25755793 -0.15588358 0.08729252
0.065636724 0.15251301 0.0628408 0.3069311 -0.15679175 0.20167592 0.114252135 0.18949074

lstm.weight_hh_l0 f4 [64, 16]
00000000: 0c7b 473d 7311 d03e daa9 023e 2e15 5bbe
00000010: 604c 0fbd ac85 8dbd 3a53 133e ac08 a13d
00000020: 6963 433d 40e0 6c3d 33e1 f33b 545a 52be
00000030: bb24 a23e 4864 0d3d 6cf1 613d 372b a7be
00000040: ffc6 cd3e 5686 b93d fac4 333b bd89 cdbd
00000050: 95eb a0be 2d04 9abd 2698 5c3e dc25 b03e
00000060: 061f 4ebe 056d 39bd 89f4 03bd f36b 3ebd
00000070: 7367 e53d 3de2 193e 3db4 f83c 764b 713d
00000080: ed44 273e cc32 f93d c087 a63e 91f5 2bbd
00000090: c395 3ebd 8941 993e 5c57 60be 0211 62bd
000000a0: b9fa 063b cc31 ef3c 71bc 953d f098 c0bd
000000b0: 2631 60be 2d6b 693e 8ffe 7cbd 0a25 443e
000000c0: d744 b3be ee11 bfbd fabd cebb 6e7c 9d3e
000000d0: 0bb0 9a3e ef17 fe3c 1023 053d c65b 1e3d
000000e0: 0be1 cd3d eaa0 65be f8f2 91bd 9c2f ccbd
000000f0: 5858 6f3e 8f0f 4dbe 139d a1ba 3413 f3bc
00000100: cb42 f4bd 9dd0 c5bd f877 c4bd 6c7f e7bd
00000110: bf5e e03d 9f11 44bc 0bff d73d af27 213e
00000120: 898a c43d 10c4 90be 49b0 47bd 3e5e a9bd
00000130: f9bc 66bd 147a 073d 5abb 29be 7e88 25be
00000140: 59b0 333e 3d08 3f3e d9e9 923e 4390 183e
00000150: 6897 423e 25e1 5fbe d63c 753e 49d6 70be
00000160: cf10 0dbe d4a7 863e 6c91 d33e d2b3 85be
00000170: 9cdb 9e3d a7c3 2d3e 0307 c03e 280a c7be
00000180: 2c9b d13e 996c 9f3e 1367 39bd 3c2d ae3e
00000190: c1b6 f23d d60b 2bbe 2226 7abc 1397 6cbe
000001a0: 195c aabe ba5b 0e3e 3098 003d d7bd f33d
000001b0: 3adb cc3d b139 40be 7d45 cdbd e004 7abe
000001c0: 7c03 4e3e e119 fa3d 7b41 36be 9655 d6bd
000001d0: eb6f 12be b0bc fcbd 7b94 a43e b91e b03d
000001e0: db05 5abe f919 8d3e 879f 823e 7604 ff3d
000001f0: 0917 ec3e 48e8 923d 26bb a5be 5af6 7dbe
00000200: a506 813e eefb c43e fbf8 63bd 3f07 a63d
00000210: 05eb 8e3d 80fa 7abe 793b 1a3e b4a0 593e
00000220: 37bd 8ebe 07f5 77bc 744a 223e 82bc babc
00000230: e8ba 853e de45 d3be 9af6 b43e d616 9abe
00000240: f41d 573e a31d 0fbd 3fa6 143e 2ddf c8bd
00000250: a96f ab3d 55cd 773e 2c5a 46be 4eb8 983e
00000260: 8f16 033e 34b9 333c 3c55 92bc b51f 21be
00000270: f47f 2bbe f3ee 2b3e c222 2f3e e76a 00be
00000280: ba88 763e 71e1 ee3d af38 9d3d 3840 4cbd
00000290: e892 303e 5966 65bd 002f 063e 4a97 ae3c
000002a0: 1998 fcbd 47b2 083e 9030 bc3d 21ab 343e
000002b0: d204 33bd 0a01 afbe 2cf0 103e 329e a4be
000002c0: 6fd4 be3d d89f fa3d 443b 95bd 6454 863d
000002d0: 5f5c 46bd 5780 923d c7f1 203d 6bdc 91be
000002e0: 98d8 c33e 0ef1 273d ccab f63d 7510 763e
000002f0: 2cde d1bd a6ec 8abd 7a7c 40bd 7516 df3d
00000300: 4e4e 32be 7967 57bd a4b3 ebbd dd41 c8bd
00000310: abdd 92bb e375 a8bd 6af2 a73e 7565 ae3c
00000320: 0d82 903d fd5e a33d 881a fb3d bef4 8a3e
00000330: 7257 633e de87 a0bd db64 f5bc f958 87bd
00000340: 8776 8f3e a73a 0ebe 5723 4a3f 4f5a 413e
00000350: df4d 883e b51b 18be 859c a93d 1396 ffbe
00000360: 217a a9bc b28c cf3e 8eeb d53d c7d6 c2bd
00000370: 7a9f f33d 9147 d4be 0e96 0d3e e776 7ebe
00000380: 0877 7dbe a664 babd 6df3 8fbe 05ac 133e
00000390: c761 a93d 77c6 3f3e aeac be3e f419 d9be
000003a0: fd37 853e b85e 83be 60cc 66bd fec9 853e
000003b0: 874e 0a3e f11c 8abe 4801 98be 3c1c 62bc
000003c0: a223 e4bd b11c 593d 38c8 5a3d 1c26 78bd
000003d0: cb80 34be 77b6 193c d0c2 863e 6c70 77be
000003e0: 272e 32be 8f34 15be c679 8e3e 0c32 083d
000003f0: 1303 f1bd 0e86 8abe ff78 d33d 62d3 493d
0.04870133 0.40638313 0.12760106 -0.21394798 -0.034984946 -0.069102615 0.14387217 0.07862982
0.047702227 0.05783105 0.0074426173 -0.2054227 0.31668648 0.034519464 0.05516188 -0.32650158
0.40190884 0.09058826 0.002743064 -0.10036037 -0.31429735 -0.07520328 0.21542415 0.34403884
-0.20129022 -0.045269985 -0.03221563 -0.046489667 0.11201372 0.1502771 0.030359382 0.058909856
0.16334887 0.12167892 0.32525444 -0.041982237 -0.046529543 0.29932812 -0.21908325 -0.055192
0.002059622 0.02919855 0.07311333 -0.094041705 -0.21893749 0.2279479 -0.061766203 0.19154754
-0.35013458 -0.09329592 -0.006309268 0.30758995 0.30212435 0.031017272 0.03250414 0.03866174
0.10052689 -0.22424665 -0.07126421 -0.09970018 0.23373544 -0.20025466 -0.0012330137 -0.029672243
-0.11926802 -0.096589305 -0.09593195 -0.11303601 0.109555714 -0.011967092 0.105466925 0.15737794
0.09596736 -0.28274584 -0.048752103 -0.082699284 -0.056332562 0.033075407 -0.16575375 -0.16165349
0.1754774 0.18655486 0.28694037 0.14898781 0.1900307 -0.2186323 0.23948988 -0.23519243
-0.13775943 0.26299918 0.41321886 -0.26113755 0.07756731 0.16969167 0.3750535 -0.38874936
0.409387 0.3113754 -0.045264315 0.34018886 0.11851264 -0.16703734 -0.015267881 -0.23104505
-0.3327339 0.13902178 0.031395137 0.119014435 0.10002752 -0.18772008 -0.100230195 -0.24415922
0.20118517 0.12211967 -0.17798416 -0.10465543 -0.14300506 -0.12340677 0.32144532 0.0859961
-0.21291296 0.27558878 0.25512335 0.12452023 0.46111324 0.071732104 -0.32369345 -0.24801007
0.25200382 0.38473457 -0.05565737 0.08106851 0.0697842 -0.2450962 0.1506175 0.2125271
-0.27878734 -0.015134103 0.15848714 -0.022794966 0.2611916 -0.41264242 0.35344392 -0.30095547
0.2100752 -0.034940373 0.14516543 -0.098081924 0.08370907 0.24199422 -0.19370335 0.29828113
0.12801574 0.010969449 -0.017862909 -0.15734752 -0.16748029 0.1679037 0.17103103 -0.1254078
0.24075595 0.11664093 0.07676827 -0.04986593 0.1724354 -0.05600581 0.13103867 0.021312375
-0.12333698 0.13349257 0.0918895 0.17643405 -0.04370577 -0.3418048 0.14154118 -0.32151943
0.09317862 0.12237519 -0.07286695 0.06559065 -0.048427936 0.07153385 0.039293077 -0.28488478
0.38251185 0.041001372 0.120444864 0.24029715 -0.10247454 -0.06783418 -0.04699371 0.10892955
-0.17412683 -0.052588914 -0.11508873 -0.097781874 -0.0044819913 -0.0822561 0.32802135 0.021288613
0.07056055 0.07977102 0.1226092 0.27139848 0.22201326 -0.078384146 -0.029955318 -0.06608767
0.28020117 -0.13889562 0.78960174 0.18882106 0.2662191 -0.1485432 0.08281807 -0.49919185
-0.020688118 0.4053703 0.10445319 -0.09513622 0.11895652 -0.4146085 0.13826773 -0.24850045
-0.24752438 -0.091012284 -0.28115407 0.14421089 0.08270603 0.18728052 0.3724112 -0.42402613
0.26019278 -0.25658202 -0.05634725 0.2613067 0.13506518 -0.26975206 -0.29688478 -0.013800677
-0.11139609 0.053005878 0.0534136 -0.06058322 -0.17627256 0.009381882 0.26320505 -0.2416398
-0.17400418 -0.14570831 0.2782728 0.033250853 -0.117681645 -0.270554 0.103258125 0.049273856

lstm.bias_ih_l0 f4 [64]
00000000: 3cbf b03d f94a 453e 88ea c7bd 8e32 7f3e
00000010: 6139 593e 35e0 cd3e 2717 a33e abc9 15ba
00000020: 20a6 ebba 741a db3d 9307 843e 665c b43d
00000030: 7a11 3f3e 1dc9 553e f3a3 1abd 585e 843d
00000040: 4ca6 b73e fb27 f23d 1e9a 79be 93e0 e33d
00000050: 943f aa3e 2666 b23e bb2a 6b3e 82a6 f9bc
00000060: 1835 84bd 364c cf3d b126 8f3e 84e3 683c
00000070: c2c4 11bd 45d5 cbbc 0bbd 60bc 67a2 8e3e
00000080: 8b8a bc3c a8f6 2dbe 2ee8 4abd a171 603e
00000090: d61d 1cbc d21f a43d 908b 9a3e a94f 82be
000000a0: 741b cebd b9aa 143e 1b00 97bd 0cf0 96bc
000000b0: 88ae 1abe c6f1 a4bc 397e 7d3d 2010 ce3d
000000c0: 49d8 293d 9d45 203d 84f5 ad3d a229 4bbe
000000d0: 77dd 813e 95c7 b53d bb34 c4bc 758e f33e
000000e0: 93ab eb3e a3d5 4a3d 8172 b9bc da67 aa3c
000000f0: d4e2 ab3e a159 87bd eef2 6c3e a5d8 6b3e
0.08630225 0.19266881 -0.0976153 0.24921629 0.21213295 0.4021012 0.318536 -0.000571395
-0.0017978586 0.10698405 0.2578703 0.08806686 0.1865901 0.208775 -0.03775401 0.06463307
0.35869062 0.11824032 -0.24375197 0.111268185 0.3325163 0.34843558 0.22965519 -0.030474905
-0.06455439 0.10121958 0.27959207 0.0142144 -0.035588033 -0.024881968 -0.013716946 0.27858278
0.023015281 -0.16988623 -0.04953783 0.21918346 -0.009528598 0.08013882 0.30184603 -0.254514
-0.1006383 0.1451825 -0.07373067 -0.01842501 -0.15105641 -0.020134818 0.061887953 0.10061669
0.04146603 0.03912889 0.08494094 -0.198401 0.25364277 0.08875958 -0.023950925 0.47569624
0.46029338 0.049520146 -0.022637608 0.020801473 0.33571494 -0.06608892 0.23139545 0.23031862

lstm.bias_hh_l0 f4 [64]
00000000: 5775 793e 6eaa 37bc 3f2e 0abe 090a a13e
00000010: 3eb7 ea3d cf33 4f3e e747 5a3e 33a6 76bd
00000020: 421c 873c 3967 b0be 31af 6dbd 0161 6ebe
00000030: 0cdc 2f3e ec85 3c3d d3dd 17bd 16d7 a6bd
00000040: bdcf 7dbd 3c8d a03e 137e 0ebe b4ee 923e
00000050: 4a1b c23c 2133 8ebc caf9 033e e12b fe3d
00000060: 067a 9cbd f472 8ebe 22da 903e d645 3ebe
00000070: f550 0b3e 5a33 4e3d 8af2 833d 7611 333e
00000080: d2e5 e43d 6f5c 083e b26f 143c e251 003e
00000090: bc8f 06be 768c b5be 638b 1f3e e478 593c
000000a0: f098 b4be 8502 aa3d 6b2f d1bd f7e9 3cbb
000000b0: c138 9e3e 1f93 00be b3a7 afbe f65f 78bd
000000c0: 41e8 f1bd b220 28bd f2ff 3e3e b58d 20bc
000000d0: 70dc 11bd 4bda d13e ba53 1f3d 3913 e93e
000000e0: 68f4 af3e c4d9 953d bf45 d9bc b18d 753d
000000f0: 4510 1b3d f412 62bd aa8e d73e 7fb2 703e
0.24361168 -0.011210067 -0.13494204 0.3145297 0.11460732 0.20234607 0.21316491 -0.060217094
0.016492967 -0.34453753 -0.058028404 -0.23279192 0.17173785 0.046026155 -0.037076782 -0.08146493
-0.061965693 0.31357753 -0.13915281 0.2869774 0.023694653 -0.017358365 0.12888256 0.12410713
-0.076404616 -0.27822077 0.28291422 -0.18581328 0.13605101 0.05034194 0.06442745 0.1748713
0.11176647 0.1331651 0.009059833 0.12531236 -0.13140768 -0.35458726 0.15580516 0.0132734515
-0.35272932 0.08301262 -0.102141224 -0.0028825977 0.30902675 -0.12556122 -0.34307632 -0.06063839
-0.11811877 -0.041046806 0.18652323 -0.009799411 -0.035610616 0.40986857 0.038898207 0.45522478
0.34366155 0.07316926 -0.026522515 0.05994958 0.037857313 -0.055193856 0.42101032 0.23505591

linear.weight f4 [5, 16]
00000000: 4005 d5bd 940b a1be d595 2abe f705 06be
00000010: 877d 06bf 38b8 b43e 046d 78be 1608 243f
00000020: 8403 263f 5a37 1cbe 99cb 0bbe 2750 e0be
00000030: 7212 72be 459e 4a3f b061 c03e f550 f23e
00000040: 018b 8bbe fc8d fdbd e03e 68be 2bbc 36be
00000050: acca 22be 996e 043f ffec a7bd affc 1b3f
00000060: 3f10 513e fcef a8be aaee 62be 2623 aebe
00000070: ed58 1ebf 88a8 533f 1352 a13e 7345 3f3f
00000080: bc84 b6be e0ee 5abe 6464 13be 4f22 f9be
00000090: 59a6 f4be 8de0 a73e c174 1abe af6a 883e
000000a0: 7d43 203f 9d2a ddbe 77ec 0bbe 6cf9 a6be
000000b0: a40c 9fbe 783f 6b3f 9d39 f03d f25e 223f
000000c0: 9d7d a6be a242 9cbd 7bab 47be 1e28 edbe
000000d0: e1a5 dcbe 8d31 a63e 90be bcbe 3353 3f3e
000000e0: 00fc 043f 48fc cdbe cbf5 b6be 9a85 cbbe
000000f0: 82e3 23bf e521 ec3e fc38 863e 8abd 243f
00000100: 714d f7be 9000 ccbe baf0 e5bd 1f1d b7be
00000110: 7f3d 01bf 6b83 233f 4f11 dfbd cbb8 a33e
00000120: 5e0d 033f 4539 b9be 23db cdbe 6be8 eabe
00000130: 835a 0abf 9733 0a3f 21a0 383e 10df 303f
-0.10401392 -0.31454146 -0.16658719 -0.13088213 -0.5253529 0.35296798 -0.24260336 0.6407484
0.64849114 -0.1525549 -0.13651885 -0.4381115 -0.23639849 0.7914775 0.3757453 0.4732739
-0.2725449 -0.12380597 -0.22680235 -0.17845218 -0.15897626 0.5173126 -0.081995 0.6093244
0.20416354 -0.32995594 -0.22161356 -0.3401119 -0.6185444 0.82679033 0.3150793 0.74715346
-0.35648143 -0.21380186 -0.14393765 -0.48658988 -0.47783163 0.32788506 -0.150836 0.26643893
0.6260298 -0.43196574 -0.13664423 -0.3261217 -0.31064332 0.9189372 0.11729739 0.63426125
-0.3251771 -0.07629897 -0.19499008 -0.4631967 -0.43095306 0.3245968 -0.36864138 0.18684082
0.5194702 -0.40231538 -0.357344 -0.39750367 -0.64019024 0.4611961 0.2621535 0.64351714
-0.4830127 -0.3984418 -0.112275556 -0.35764405 -0.5048446 0.638724 -0.10891973 0.31976923
0.5119227 -0.36176506 -0.4020625 -0.45880446 -0.5404436 0.5398497 0.18029834 0.69090366

linear.bias f4 [5]
00000000: ffe4 9ebe 6ad0 c1be 279b 1ebf 369f 1fbf
00000010: 8908 82be
-0.31034085 -0.3785432 -0.61955494 -0.6235231 -0.25397137
