seeding/seeds/fourpoint/0_1.pt (torch, 8224 bytes, 6 tensors)

lstm.weight_ih_l0 f4 [64, 4]
-0.021545889 0.1342199 0.023443716 0.054184422 0.3131341 -0.0457027 0.20670566 0.12278388
0.21839845 0.010052568 -0.23599339 -0.11045005 -0.117018774 0.2744032 -0.053188156 0.05367013
0.09306945 0.09192526 0.19868153 0.08333215 0.027782122 -0.043868966 -0.29857844 -0.14629954
-0.15718006 -0.23358518 -0.22767986 0.036944337 -0.06895082 0.21862087 0.09037521 0.2967257
-0.20793422 -0.07071021 0.04600546 -0.031995587 -0.11522856 -0.21292736 -0.19821681 -0.2627477
-0.08451781 -0.11712974 -0.24634899 -0.059881486 0.066242725 0.2814269 -0.03279003 -0.053956944
-0.1480036 0.19019166 0.35487112 0.12118811 -0.05486708 0.18314931 -0.07743294 0.014059249
-0.023755223 -0.35431203 -0.29077834 0.047279596 0.048105676 0.3827819 0.20311159 -0.18975258
-0.030402875 -0.012737777 0.24147724 0.21421812 0.123041816 -0.0024899824 0.29931524 0.23684117
0.2891494 0.012150399 0.21838883 0.30000827 -0.10470266 -0.3569359 -0.024510598 0.16234088
-0.22907856 0.12507707 0.1696034 -0.042265322 -0.3101327 0.061789483 -0.1555967 -0.10944238
-0.059574783 -0.19707654 0.022580056 -0.10859826 -0.070137255 0.13898696 0.06341416 -0.021527087
0.38442633 0.026343731 0.13444342 -0.02556888 -0.2255881 0.034685418 -0.18194988 0.14122845
0.022549925 -0.13078877 -0.049797695 -0.25974435 -0.23411553 0.29244432 0.2988209 0.14585285
0.14883532 -0.0061949096 0.050158598 0.047915097 -0.1067277 0.2866885 0.31362998 -0.07154159
-0.065105 -0.32319328 -0.17886695 0.38201848 0.01451009 0.25912407 -0.062146414 0.14070718
-0.20809723 0.028109862 -0.33188152 -0.101959325 -0.01981267 0.12344299 0.2831436 0.30335504
-0.3183256 0.0051785624 0.049527228 -0.2762193 -0.11130576 0.2273793 -0.10490711 0.38522568
-0.053877737 0.10888337 0.039854046 0.35235643 0.18881077 0.115960434 -0.11264571 -0.15485384
0.07140487 0.15706728 -0.27279457 0.097612746 0.20383374 0.08350374 0.29912272 0.13066755
0.1562888 -0.16999227 0.03289951 -0.010030239 0.21856411 0.050840497 -0.16945904 0.11333801
-0.10661233 0.12504351 -0.24751018 0.13223302 0.13715121 -0.26190722 -0.24142273 -0.07473592
0.09148818 -0.18919142 -0.13150693 -0.059296813 -0.16245314 -0.12184458 -0.08346591 0.10558738
-0.02301716 0.33226085 0.11005238 0.121500075 -0.22290559 -0.1471198 -0.101082236 -0.032618053
0.42852104 0.19564316 0.050419614 0.028814856 0.008183207 0.2553223 0.25828817 0.27770457
0.031294983 0.26194915 0.2602775 0.04947988 -0.14760005 0.09880481 0.022933826 0.35058558
-0.17739262 0.08300884 0.15695189 0.27299848 -0.131551 -0.26033366 -0.25641772 0.089025855
-0.20882298 -0.37281033 -0.16630419 0.26967502 0.3937278 0.30006975 0.16785052 0.19318469
-0.19317357 0.1368175 0.14499845 0.08410213 0.26566687 -0.12532835 -0.20528491 -0.043051463
-0.25226283 -0.07487491 -0.24947977 0.106806986 -0.183088 0.15801156 0.04026546 0.28576785
-0.10949348 0.08863806 0.06721808 0.6062661 0.2814565 0.22435296 0.3263348 0.077089764
-0.29587868 -0.08482937 0.023106052 -0.043685395 0.33325064 -0.047177143 0.25744554 0.34700868
00000000: 0181 b0bc f170 093e 090d c03c 7cf0 5d3d
00000010: 1d53 a03e c132 3bbd a6aa 533e 1d76 fb3d
00000020: d8a3 5f3e 87b3 243c 40a8 71be a333 e2bd
00000030: 8aa7 efbd 947e 8c3e d3db 59bd 36d5 5b3d
00000040: 329b be3d 5043 bc3d 2c73 4b3e 0caa aa3d
00000050: 5597 e33c f2af 33bd 46df 98be 8ccf 15be
00000060: cff3 20be f430 6fbe e924 69be f252 173d
00000070: 1636 8dbd 26de 5f3e a316 b93d 6eec 973e
00000080: b5ec 54be 84d0 90bd 3970 3c3d ce0d 03bd
00000090: f4fc ebbd a109 5abe 59f9 4abe de86 86be
000000a0: ac17 adbd b8e1 efbd e942 7cbe 4a46 75bd
000000b0: 44aa 873d 3017 903e d74e 06bd f501 5dbd
000000c0: 418e 17be 9ac1 423e abb1 b53e 7931 f83d
000000d0: 4ebc 60bd 7e8b 3b3e 2995 9ebd c458 663c
000000e0: 509a c2bc 6368 b5be e6e0 94be 40a8 413d
000000f0: 750a 453d fdfb c33e 7cfc 4f3e 804e 42be
00000100: 730f f9bc 1cb2 50bc cf45 773e ff5b 5b3e
00000110: 59fd fb3d f92e 23bb d93f 993e 7e86 723e
00000120: 640b 943e 7812 473c 52a1 5f3e af9a 993e
00000130: 596e d6bd 4dc0 b6be 73ca c8bc b03c 263e
00000140: 9293 6abe 3414 003e 84ac 2d3e 671e 2dbd
00000150: b7c9 9ebe f816 7d3d be54 1fbe 5423 e0bd
00000160: b004 74bd 6fce 49be cff9 b83c c468 debd
00000170: 1fa4 8fbd 9952 0e3e 48df 813d 9359 b0bc
00000180: 87d3 c43e cfce d73c 89ab 093e d475 d1bc
00000190: 9100 67be 4c12 0e3d 1251 3abe 319e 103e
000001a0: 9fba b83c 7eed 05be abf8 4bbd 36fd 84be
000001b0: fbbb 6fbe 43bb 953e 0eff 983e 735a 153e
000001c0: 4968 183e abfe cabb 1a73 4d3d 9f42 443d
000001d0: 0d94 dabd d6c8 923e 1c94 a03e 6684 92bd
000001e0: c555 85bd 9779 a5be e628 37be ed97 c33e
000001f0: bbbb 6d3c e9ab 843e 3d8d 7ebd 8b15 103e
00000200: 7117 55be a746 e63c 60ec a9be 0dd0 d0bd
00000210: 2e4e a2bc aecf fc3d 33f8 903e 5a51 9b3e
00000220: 93fb a2be eeb0 a93b 10dd 4a3d 9e6c 8dbe
00000230: 46f4 e3bd 1fd6 683e 8ad9 d6bd 4d3c c53e
00000240: e7ae 5cbd 3ffe de3d ff3d 233d 1068 b43e
00000250: 9c57 413e aa7c ed3d cbb2 e6bd 0192 1ebe
00000260: b73c 923d 3fd6 203e bbab 8bbe 31e9 c73d
00000270: cbb9 503e 0204 ab3d 9d26 993e b7cd 053e
00000280: 2c0a 203e 7412 2ebe a3c1 063d df55 24bc
00000290: 45cf 5f3e 203e 503d ac86 2dbe c21d e83d
000002a0: 9157 dabd 680b 003e 4f73 7dbe 1868 073e
000002b0: 5e71 0c3e b418 86be 8537 77be 250f 99bd
000002c0: 285e bb3d 65bb 41be c1a9 06be 37e1 72bd
000002d0: 1e5a 26be a789 f9bd 2df0 aabd 323e d83d
000002e0: 7c8e bcbc 181e aa3e 2463 e13d 08d5 f83d
000002f0: 5d41 64be 93a6 16be 3404 cfbd 829a 05bd
00000300: 1c67 db3e ae56 483e cc84 4e3d 220d ec3c
00000310: dc12 063c 9bb9 823e 593e 843e 4b2f 8e3e
00000320: 2b2f 003d 331e 863e 1843 853e 6aab 4a3d
00000330: 7824 17be 2d5a ca3d b8df bb3c f47f b33e
00000340: 69a6 35be 8a00 aa3d ffb7 203e 75c6 8b3e
00000350: 4eb5 06be 744a 85be 2f49 83be 3053 b63d
00000360: b1d5 55be ffe0 bebe a54b 2abe d812 8a3e
00000370: b196 c93e bea2 993e 02e1 2b3e 35d2 453e
00000380: 4bcf 45be e319 0c3e 797a 143e bd3d ac3d
00000390: 7d05 883e 1356 00be 3536 52be bb56 30bd
000003a0: 9828 81be 0458 99bd a077 7fbe 9fbd da3d
000003b0: 6c7b 3bbe c8cd 213e 65ed 243d 2a50 923e
000003c0: 1e3e e0bd df87 b53d a2a9 893d 4134 1b3f
000003d0: 111b 903e c8bc 653e 5b15 a73e 3de1 9d3d
000003e0: 697d 97be 05bb adbd e748 bd3c 75ef 32bd
000003f0: d49f aa3e d23c 41bd e7cf 833e 1fab b13e

lstm.weight_hh_l0 f4 [64, 16]
-0.41328365 0.17878556 -0.46532306 -0.22054099 0.2146359 -0.005701953 0.13763286 0.09673117
-0.11346368 0.2930844 -0.1758327 -0.2978497 -0.18942381 -0.036588494 -0.13389446 -0.28305438
0.035829768 -0.07660316 -0.23294763 -0.30614096 0.040710364 -0.081335105 0.057052817 0.40613088
0.067186736 -0.11494068 0.028060464 -0.07499012 0.17182288 -0.24527118 -0.08453134 -0.23875375
-0.16639492 0.20802787 -0.12847775 0.13909821 -0.058166787 0.3632239 -0.015705938 0.022999644
-0.042881835 0.087024435 -0.15867433 -0.13545394 -0.19807813 0.073026955 0.0025747619 -0.094775595
-0.009127028 0.4014551 -0.10178634 0.12896675 0.104849264 -0.24740107 -0.13082428 0.058479987
-0.17216949 -0.012518388 -0.028263716 -0.35143816 -0.2891327 -0.14229181 -0.027893754 -0.3792924
-0.33765003 0.28939492 0.09748071 0.049457856 0.14679842 0.37130594 0.11109155 -0.08489874
0.027034778 0.18465438 -0.037176102 -0.13393332 -0.26386863 -0.110910304 0.22493102 -0.3197864
-0.17871688 -0.04670913 -0.07161789 0.2897204 -0.20803529 0.050046925 -0.19650641 -0.26161402
0.14723523 -0.043839693 -0.3003259 -0.24064362 0.062415924 0.08967213 0.08386126 0.044945054
-0.10060838 -0.15488027 -0.061506566 -0.07844561 0.094708964 -0.21678913 0.00056277757 -0.12128324
0.026499512 0.046473797 -0.18757129 -0.08347746 0.24691038 0.11993009 -0.20869447 -0.10438857
-0.062564835 0.25469807 -0.05362069 0.25576988 0.15045935 -0.12586023 0.13608067 -0.013299418
-0.29177576 -0.12025788 -0.034368888 0.044317283 -0.22149518 -0.20984975 0.15362518 -0.3686055
-0.0022906335 0.32852045 -0.3190017 -0.051276676 0.51829493 0.1083869 -0.030636735 0.15938552
-0.52235967 0.13009894 -0.06782552 -0.18718533 -0.18715999 -0.37702343 -0.31788334 -0.112221494
0.09900798 -0.28210893 -0.015682122 0.12811157 -0.22112945 0.14609794 0.09853389 -0.21951328
0.1626524 0.23124254 -0.23334055 0.13164373 -0.14067827 -0.046178408 -0.15672083 0.29406878
-0.15999432 0.10293572 -0.062250286 -0.081201665 0.24892092 -0.42064887 -0.24169052 -0.20753306
-0.31432655 0.3459387 -0.13020529 0.07927254 -0.031948317 0.19563462 -0.4870981 -0.0785362
0.1863047 -0.17623545 0.15867758 -0.14066094 -0.2879812 0.02801891 0.060797643 -0.18383558
0.07045122 -0.11438303 -0.1050291 -0.19876106 -0.30206177 -0.012739354 0.001313101 -0.06996982
-0.005681775 0.25814036 0.052290246 0.30644658 0.47775394 0.10790652 -0.31459147 0.041903198
-0.33482155 -0.46997207 0.29693663 -0.22456218 -0.019536085 -0.31882316 -0.5386191 -0.013041761
0.0059254896 -0.07781544 0.3004908 0.10401411 0.08916709 0.19038917 0.23804037 0.08581478
-0.1978137 -0.12488115 0.3068331 -0.12750927 -0.19451816 0.06687466 0.26557907 0.1469436
0.19079271 0.15082508 -0.1386718 0.18053149 0.29970026 -0.25075066 0.08003775 -0.20701352
-0.11711568 0.1487519 -0.23929098 -0.1454711 -0.34835985 0.23593299 -0.03837791 0.01131226
0.18410055 0.06519479 0.12528077 -0.27664104 -0.0073704883 -0.03292181 0.03196831 -0.1164606
0.09133641 -0.011231717 0.07674104 -0.15325092 -0.05908915 0.035422485 -0.036876123 -0.31022203
00000000: ea99 d3be 9013 373e d33e eebe 7fd5 61be
00000010: 83c9 5b3e 73d7 babb a1ef 0c3e fe1a c63d
00000020: a55f e8bd 290f 963e 7d0d 34be c27f 98be
00000030: 51f8 41be d1dd 15bd a11b 09be 81ec 90be
00000040: 3cc2 123d 1ee2 9cbd d389 6ebe 82be 9cbe
00000050: e9bf 263d 0593 a6bd 37b0 693d 63f0 cf3e
00000060: 3399 893d 0566 ebbd 0fdf e53c 6c94 99bd
00000070: 56f2 2f3e 5e28 7bbe c41e adbd dd7b 74be
00000080: 6e63 2abe 4205 553e ac8f 03be c36f 0e3e
00000090: 4c40 6ebd 7cf8 b93e bda9 80bc c069 bc3c
000000a0: dda4 2fbd de39 b23d 867b 22be 70b4 0abe
000000b0: fed4 4abe 288f 953d 56bd 283b b519 c2bd
000000c0: 8889 15bc 868b cd3e 5b75 d0bd dc0f 043e
000000d0: 36bb d63d b556 7dbe cdf6 05be b688 6f3d
000000e0: 334d 30be ed19 4dbc 4f89 e7bc b4ef b3be
000000f0: 3409 94be f2b4 11be 7181 e4bc 9d32 c2be
00000100: 77e0 acbe 922b 943e f7a3 c73d 5294 4a3d
00000110: 5352 163e d01b be3e f783 e33d 64df adbd
00000120: 0a78 dd3c 0a16 3d3e f845 18bd d125 09be
00000130: ca19 87be f124 e3bd 5154 663e 0bbb a3be
00000140: 8f01 37be 1352 3fbd 66ac 92bd 3b56 943e
00000150: 3407 55be 01fe 4c3d fa38 49be 46f2 85be
00000160: d5c4 163e 4091 33bd 51c4 99be 486b 76be
00000170: d7a7 7f3d 06a6 b73d 74bf ab3d 4e18 383d
00000180: c40b cebd ef98 1ebe 4fee 7bbd 18a8 a0bd
00000190: c6f6 c13d f8fd 5dbe 5d87 133a 5963 f8bd
000001a0: 8115 d93c 4f5b 3e3d b012 40be 3bf6 aabd
000001b0: 13d6 7c3e e89d f53d 01b4 55be adc9 d5bd
000001c0: fe21 80bd c967 823e 5ea1 5bbd 45f4 823e
000001d0: 0412 1a3e 81e1 00be bb58 0b3e cde5 59bc
000001e0: a263 95be c349 f6bd 64c6 0cbd 0a86 353d
000001f0: a2cf 62be dae2 56be eb4f 1d3e dcb9 bcbe
00000200: 741e 16bb d533 a83e 3154 a3be 7e07 52bd
00000210: faae 043f f3f9 dd3d e4f9 fabc f535 233e
00000220: 5db9 05bf a838 053e 1be8 8abd 83ad 3fbe
00000230: dea6 3fbe 3709 c1be 9bc1 a2be 62d4 e5bd
00000240: b2c4 ca3d 9570 90be cb77 80bc ae2f 033e
00000250: c26f 62be b39a 153e 23cc c93d 17c8 60be
00000260: 5a8e 263e d8ca 6c3e d3f0 6ebe 9dcd 063e
00000270: f70d 10be 9225 3dbd 6d7b 20be 2f90 963e
00000280: 8dd5 23be f6cf d23d 28fa 7ebd 0f4d a6bd
00000290: 20e5 7e3e 4a5f d7be b87d 77be 8c83 54be
000002a0: 69ef a0be e11e b13e 8954 05be a459 a23d
000002b0: 3ddc 02bd 7154 483e ec64 f9be 96d7 a0bd
000002c0: a9c6 3e3e 1177 34be 607c 223e 6c09 10be
000002d0: 4672 93be ea87 e53c f306 793d 653f 3cbe
000002e0: bb48 903d a641 eabd 7f19 d7bd 0588 4bbe
000002f0: d7a7 9abe b9b8 50bc 5c1c ac3a 564c 8fbd
00000300: 2f2e babb f92a 843e 4c2e 563d 91e6 9c3e
00000310: 2a9c f43e 18fe dc3d 2212 a1be b0a2 2b3d
00000320: bb6d abbe 2ea0 f0be 1408 983e a1f3 65be
00000330: 240a a0bc ca3c a3be f1e2 09bf 1cad 55bc
00000340: 9c2a c23b b45d 9fbd eed9 993e 5a05 d53d
00000350: 3c9d b63d 61f5 423e dbc0 733e a9bf af3d
00000360: ad8f 4abe b0c1 ffbd 3a19 9d3e ca91 02be
00000370: c52f 47be 95f5 883d fbf9 873e 6278 163e
00000380: 2a5f 433e e471 1a3e fbff 0dbe 3fdd 383e
00000390: 5072 993e 6462 80be d5ea a33d 5afb 53be
000003a0: 58da efbd 6b52 183e b208 75be 60f6 14be
000003b0: 395c b2be 6b98 713e 2832 1dbd 0f57 393c
000003c0: db84 3c3e d984 853d 9a49 003e e5a3 8dbe
000003d0: 2384 f1bb 05d9 06bd 34f1 023d e582 eebd
000003e0: 950e bb3d 3c05 38bc 682a 9d3d cfed 1cbe
000003f0: 7707 72bd 2b17 113d 6b0b 17bd 6cd5 9ebe

lstm.bias_ih_l0 f4 [64]
0.37319693 0.18977073 -0.17678504 0.19451989 -0.0029600116 -0.0893597 0.028392984 0.083401576
0.18589042 -0.21488221 0.106393695 -0.16748872 0.09192657 -0.06730845 0.10928127 -0.20941259
-0.006769924 0.078115866 -0.08208169 0.12578145 0.11946763 -0.14221238 -0.08070421 0.35662013
0.24126 -0.006656696 -0.058956325 0.3139939 0.26080537 -0.11438665 0.06245676 -0.057227038
-0.25693196 0.28990433 0.042524222 0.2716514 0.40198782 -0.15354991 0.0055509782 -0.111301325
-0.108741686 0.28783268 -0.114584036 -0.30772483 -0.12307561 -0.09510092 -0.002105986 0.118611366
-0.032429658 -0.059606712 0.19985369 0.33073175 0.47591645 0.06452756 -0.16701263 -0.1541348
0.1475275 -0.12210774 -0.2945197 0.44458687 0.31833288 0.10891274 0.2955522 0.15895772
00000000: ab13 bf3e 4253 423e 2307 35be 3930 473e
00000010: c1fc 41bb 3802 b7bd 6798 e83c 72ce aa3d
00000020: 0f5a 3e3e 150a 5cbe f0e4 d93d 2a82 2bbe
00000030: ff43 bc3d 03d9 89bd dcce df3d 4170 56be
00000040: 3dd6 ddbb 36fb 9f3d 721a a8bd dacc 003e
00000050: 72ab f43d 1fa0 11be 4048 a5bd ea96 b63e
00000060: dd0c 773e 6a20 dabb 307c 71bd cfc3 a03e
00000070: 4888 853e 8c43 eabd a9d2 7f3d e666 6abd
00000080: 968c 83be 576e 943e e12d 2e3d e415 8b3e
00000090: 59d1 cd3e 303c 1dbe fbe4 b53b f3f1 e3bd
000000a0: f6b3 debd ce5e 933e 09ab eabd 1c8e 9dbe
000000b0: 110f fcbd 45c4 c2bd 9504 0abb 84ea f23d
000000c0: f6d4 04bd 2b26 74bd 72a6 4c3e ac55 a93e
000000d0: 52ab f33e 0627 843d 5c05 2bbe 83d5 1dbe
000000e0: 7311 173e 9f13 fabd 49cb 96be e4a0 e33e
000000f0: 87fc a23e a50d df3d 9e52 973e d0c5 223e

lstm.bias_hh_l0 f4 [64]
0.4370253 -0.10222344 0.14784108 0.26169485 -0.2712713 0.13281748 0.09487148 0.377075
0.032858685 -0.22778405 0.0072221323 0.19429237 0.20327836 0.10797114 -0.063790455 -0.08162215
-0.22143753 0.13497563 0.08699854 -0.106591105 0.031210296 -0.15483291 -0.047411975 0.24235621
0.10601211 0.09039064 0.1363178 0.22790916 0.10579627 -0.093557775 0.22370897 0.23915048
-0.22887181 0.14404298 -0.3020118 0.29844686 0.20585677 -0.12536915 0.14022775 -0.28664824
-0.24464652 -0.1668382 0.17744656 -0.18149716 -0.34800702 -0.11150775 -0.27986583 -0.15476888
-0.08743447 -0.09082855 0.1970999 0.37352207 0.12771174 0.059798934 0.058710333 0.19765921
0.46515507 -0.19592732 0.13240899 0.10584418 0.31093803 -0.112781785 0.06749217 0.124062024
00000000: c8c1 df3e 865a d1bd a763 173e defc 853e
00000010: 12e4 8abe 4e01 083e fa4b c23d f90f c13e
00000020: d496 063d 3940 69be a3a7 ec3b 94f4 463e
00000030: 3428 503e f91f dd3d 92a4 82bd 8429 a7bd
00000040: 85c0 62be 0d37 0a3e 4a2c b23d 704c dabd
00000050: bcac ff3c 858c 1ebe 0f33 42bd 3a2c 783e
00000060: e11c d93d ba1e b93d e596 0b3e 0561 693e
00000070: b7ab d83d 389b bfbd f713 653e dde3 743e
00000080: 5f5d 6abe 0180 133e 4aa1 9abe 07ce 983e
00000090: 1ecc 523e c560 00be dd97 0f3e 8fc3 92be
000000a0: 9e84 7abe a2d7 2abe 8db4 353e 64da 39be
000000b0: fa2d b2be 2d5e e4bd 934a 8fbe bc7b 1ebe
000000c0: d810 b3bd 5204 babd 8ed4 493e 493e bf3e
000000d0: dec6 023e baef 743d 3f7a 703d 2d67 4a3e
000000e0: ce28 ee3e 2ca1 48be 3996 073e d5c4 d83d
000000f0: 4533 9f3e 23fa e6bd 5639 8a3d 3b14 fe3d

linear.weight f4 [5, 16]
-0.8698778 0.24541707 -0.077610016 0.49066606 0.27201033 -0.51452786 -0.5006 0.42529353
-0.58355176 -0.10122325 0.19687636 -0.44076607 -0.5600438 -0.50973535 -0.26373798 -0.34683982
-0.72846645 0.2271053 -0.34902477 0.42848998 0.4466745 -0.44761625 -0.5518481 0.28879434
-0.60008603 0.08640186 0.421974 -0.67437345 -0.50630075 -0.30448964 -0.2421648 -0.54682595
-0.92134255 0.15668477 -0.33382294 0.41020802 0.26140773 -0.32546666 -0.3189635 0.3401767
-0.6881198 -0.3895541 0.18259373 -0.70227987 -0.7183496 -0.3241375 -0.42315787 -0.31855807
-0.53138036 0.46923026 -0.20402645 0.7171246 0.21078123 -0.16416581 -0.21568698 0.61531293
-0.42933938 -0.23056671 0.35592166 -0.46218455 -0.632927 -0.2286255 -0.5557183 -0.51340926
-0.81046754 0.43050724 -0.31912836 0.4872877 0.41232082 -0.41828296 -0.4218215 0.36549237
-0.50735897 -0.02793702 0.17758317 -0.55134666 -0.69332266 -0.32490692 -0.49430722 -0.50247
00000000: 50b0 5ebf 9d4e 7b3e 00f2 9ebd 9538 fb3e
00000010: f044 8b3e 19b8 03bf 5227 00bf 13c0 d93e
00000020: a663 15bf 234e cfbd f599 493e 17ac e1be
00000030: 085f 0fbf 047e 02bf aa08 87be fd94 b1be
00000040: c77c 3abf 4b8e 683e 60b3 b2be 0a63 db3e
00000050: 85b2 e43e f52d e5be eb45 0dbf dadc 933e
00000060: 3d9f 19bf 75f3 b03d fa0c d83e bda3 2cbf
00000070: ed9c 01bf 11e6 9bbe 0dfa 77be c9fc 0bbf
00000080: 1bdd 6bbf f971 203e d7ea aabe c906 d23e
00000090: 3cd7 853e 91a3 a6be 2f4f a3be a42b ae3e
000000a0: 9f28 30bf a373 c7be daf9 3a3e 9dc8 33bf
000000b0: c2e5 37bf 5af5 a5be 26a8 d8be 0b1a a3be
000000c0: 8b08 08bf f33e f03e 4fec 50be 7a95 373f
000000d0: 09d7 573e 151b 28be 0cdd 5cbe 2685 1d3f
000000e0: 5fd2 dbbe ae19 6cbe 5d3b b63e 74a3 ecbe
000000f0: 8107 22bf ce1c 6abe 8e43 0ebf ca6e 03bf
00000100: cd7a 4fbf 726b dc3e cb64 a3be c67d f93e
00000110: b71b d33e 2f29 d6be fdf8 d7be d121 bb3e
00000120: 47e2 01bf 2ddc e4bc 5dd8 353e 0e25 0dbf
00000130: 987d 31bf 335a a6be d615 fdbe e0a1 00bf

linear.bias f4 [5]
0.5298158 0.3454424 0.37832567 0.6373925 0.41588286
00000000: 02a2 073f d4dd b03e e7b3 c13e 282c 233f
00000010: 99ee d43e
